ts_classifier_traced.pt (torch, 889516 bytes, 12 tensors)

weight_ih_l0 f4 [512, 6]
0.0061734356 -0.05324413 0.028144695 0.027734317 -0.04724108 -0.013247289 -0.051779915 0.022934139
-0.02380874 0.062095605 0.06274479 0.009004049 -0.041379567 -0.05191544 -0.013860549 -0.031084135
0.031683486 -0.07937015 0.08312472 -0.06933331 0.06779379 -0.014673382 0.047458697 0.034483798
0.0037004557 0.016480878 0.06712292 0.022737762 0.046918165 -0.06837206 0.06292152 0.030420318
0.022388645 0.012210324 0.04308582 0.0811779 -0.031784344 -0.049241327 -0.034815688 -0.06628196
0.03019247 -0.05573476 -0.05247493 0.076263 0.07541334 0.004521944 -0.02090402 -0.016849281
0.0418713 -0.08253429 -0.07223399 0.07060442 0.08725963 -0.0052524246 -0.069872186 0.0024150182
-0.041175116 -0.0005444791 0.04200428 0.039091337 -0.010364749 0.009731077 0.024053454 -0.06927997
-0.029966902 0.0034606922 -0.043916076 -0.03860178 0.036630765 0.059318844 0.010409724 -0.027211266
0.05041257 -0.048451494 -0.01845609 0.08354099 0.014369984 0.008869531 0.040489435 -0.021553636
0.08633477 -0.0613192 -0.013539748 -0.004530415 -0.042179123 -0.021876 0.048512276 0.041040465
-0.002330981 0.07114245 -0.062406212 -0.05270542 0.03993485 -0.004750807 -0.0805464 -0.061178476
-0.053807825 0.06825357 0.040027168 0.06837407 -0.06581472 -0.08617498 -0.059448015 0.0094558075
-0.019539665 -0.06302278 0.0554674 -0.030853799 -0.051119648 0.040827863 -0.02386931 0.05496737
0.017030068 0.002207247 0.018554933 -0.0664157 -0.047292236 -0.041541476 -0.050013553 0.015673153
0.01074788 -0.03672442 0.05062452 -0.05617621 0.010887457 -0.031963024 -0.07666959 -0.057553433
0.03610427 0.034977168 -0.054654825 -0.027562194 -0.08482941 0.04751209 0.07318864 0.023771502
-0.060361724 0.043314304 0.0690451 -0.018082723 -0.019912971 0.024348162 0.008520367 -0.03369446
-0.08205582 -0.061977368 0.004786562 -0.004741404 0.07298706 0.0030249897 -0.022758335 -0.08636283
-0.08126586 0.03671614 0.07872679 -0.0013410905 -0.07006806 0.031380907 0.08091621 -0.04954525
-0.014318136 0.016402178 -0.05040675 -0.08195655 0.038694 -0.07252877 -0.022185922 -0.04693228
0.066470645 0.017065898 0.040989347 -0.05985341 0.0744848 0.007875301 -0.049046703 -0.005782049
-0.06262349 -0.0043538082 0.048428237 -0.03975979 0.06867731 0.026987016 -0.02141514 0.021841438
-0.021989364 -0.026651505 -0.057989 0.051501773 0.053058483 0.030264333 0.052274756 0.08830305
0.08322648 -0.08529719 0.020154117 -0.007568056 0.030012017 -0.017141705 0.01908613 -0.08132486
0.034917027 0.07972818 -0.020895751 -0.07593512 -0.07722113 -0.016956076 -0.006518189 -0.000901415
-0.0016497233 0.06262533 -0.01603535 0.025223687 -0.046975058 0.08693143 0.033912823 -0.012258215
0.052680176 0.031287827 0.007337596 -0.039300468 -0.00031092268 -0.003906954 -0.053922493 0.0012647891
0.017127715 -0.054241557 0.014050048 -0.031599637 -0.07353491 -0.05293435 -0.070148826 0.020455528
0.054066498 0.08035541 0.08666415 0.034813404 0.043230318 -0.015073299 0.073067926 -0.033792086
-0.02401834 -0.029416379 -0.059250996 -0.068120405 -0.018017925 0.071435414 -0.04403144 -0.08024299
-0.020194836 0.08009126 0.021318495 -0.0055870228 -0.02526658 0.07760749 -0.08493199 0.05008427
00000000: 884a ca3b 8416 5abd b48f e63c 1433 e33c
00000010: dd7f 41bd 280b 59bc 2d17 54bd 60e0 bb3c
00000020: 8c0a c3bc f657 7e3d 5780 803d b885 133c
00000030: 9f7d 29bd 49a5 54bd 5b17 63bc 28a4 febc
00000040: 8bc6 013d d18c a2bd 4b3d aa3d 9ffe 8dbd
00000050: 78d7 8a3d a068 70bc 0d64 423d e23e 0d3d
00000060: 5883 723b e802 873c be77 893d 8b44 ba3c
00000070: 432d 403d a706 8cbd ffdc 803d 0834 f93c
00000080: 6468 b73c d00d 483c c27a 303d 9940 a63d
00000090: 4d30 02bd 46b1 49bd e59a 0ebd d6be 87bd
000000a0: 3356 f73c 224a 64bd f4ef 56bd c72f 9c3d
000000b0: 4f72 9a3d d12c 943b e83e abbc 8107 8abc
000000c0: 3e81 2b3d bd07 a9bd 6aef 93bd 0d99 903d
000000d0: 2db5 b23d 881c acbb 2619 8fbd 4845 1e3b
000000e0: 3da7 28bd 60bb 0eba ae0c 2c3d 3d1e 203d
000000f0: e8d0 29bc 186f 1f3c c00b c53c a8e2 8dbd
00000100: 267d f5bc c8cc 623b 58e1 33bd e61c 1ebd
00000110: 240a 163d 51f8 723d 8c8d 2a3c 29ea debc
00000120: 697d 4e3d 1375 46bd 3a31 97bc 8a17 ab3d
00000130: 1570 6b3c 8251 113c 40d8 253d 4091 b0bc
00000140: 49d0 b03d d729 7bbd d2d5 5dbc e073 94bb
00000150: 04c4 2cbd 4c35 b3bc cfb4 463d 0c1a 283d
00000160: 5fc3 18bb 22b3 913d a89d 7fbd a3e1 57bd
00000170: ba92 233d a8ac 9bbb 83f5 a4bd 4896 7abd
00000180: 9865 5cbd 87c8 8b3d 87f3 233d b407 8c3d
00000190: dec9 86bd 827c b0bd c37f 73bd 88ec 1a3c
000001a0: a611 a0bc 1612 81bd c931 633d 1bc1 fcbc
000001b0: d662 51bd 1e3b 273d 9289 c3bc 7725 613d
000001c0: a482 8b3c 76a7 103b 8400 983c f404 88bd
000001d0: 81b5 41bd 6527 2abd 03db 4cbd fc64 803c
000001e0: e017 303c 586c 16bd a85b 4f3d 0719 66bd
000001f0: 4e61 323c a9eb 02bd f204 9dbd 26bd 6bbd
00000200: 12e2 133d 3844 0f3d bddd 5fbd 1cca e1bc
00000210: 0bbb adbd 0a9c 423d ede3 953d 74bc c23c
00000220: db3d 77bd 576a 313d 8467 8d3d 3822 94bc
00000230: 8720 a3bc cc75 c73c 0299 0b3c 3403 0abd
00000240: e20c a8bd fbdb 7dbd 98d8 9c3b c85d 9bbb
00000250: 3d7a 953d e83e 463b b06f babc ffde b0bd
00000260: b76e a6bd aa63 163d 833b a13d 88c7 afba
00000270: d87f 8fbd 4489 003d 66b7 a53d f6ef 4abd
00000280: 9d96 6abc dc5d 863c 4f77 4ebd d6d8 a7bd
00000290: 9a7d 1e3d f789 94bd 40bf b5bc 103c 40bd
000002a0: c321 883d c8cd 8b3c 72e4 273d d928 75bd
000002b0: 7d8b 983d 6807 013c 32e5 48bd 5877 bdbb
000002c0: bf40 80bd 64aa 8ebb b05c 463d 29db 22bd
000002d0: b1a6 8c3d e013 dd3c ce6e afbc d1ec b23c
000002e0: 0a23 b4bc 4254 dabc e085 6dbd 86f3 523d
000002f0: da53 593d e8ec f73c 0e1e 563d 3bd8 b43d
00000300: a572 aa3d 4bb0 aebd 3f1a a53c 75fd f7bb
00000310: c3db f53c c36c 8cbc 845a 9c3c a68d a6bd
00000320: 2805 0f3d 8748 a33d 912d abbc df83 9bbd
00000330: 1d26 9ebd 78e7 8abc 8896 d5bb f04c 6cba
00000340: 873b d8ba b641 803d 915c 83bc e8a1 ce3c
00000350: eb68 40bd 1b09 b23d 2ce8 0a3d aed6 48bc
00000360: 2bc7 573d aa27 003d 3770 f03b 87f9 20bd
00000370: 5603 a3b9 e805 80bb d5dd 5cbd 48c7 a53a
00000380: 6c4f 8c3c 652c 5ebd 2c32 663c 9f6e 01bd
00000390: 7999 96bd b0d1 58bd 30aa 8fbd 5a92 a73c
000003a0: d574 5d3d 6191 a43d f97c b13d 8098 0e3d
000003b0: 4612 313d 00f6 76bc a3a4 953d 9269 0abd
000003c0: 1cc2 c4bc 9efa f0bc 2cb1 72bd b682 8bbd
000003d0: 549a 93bc bb4c 923d 505a 34bd 7056 a4bd
000003e0: a46f a5bc e306 a43d 20a4 ae3c 5813 b7bb
000003f0: dcfb cebc adf0 9e3d d3f0 adbd 2a25 4d3d

weight_hh_l0 f4 [512, 128]
0.07867608 0.046144657 0.007558536 0.055551596 0.057617836 0.027860157 0.023005024 0.013090953
0.052743115 -0.070456244 0.03307447 0.018505707 0.08616673 -0.04126885 -0.018427782 0.07277464
0.041143067 -0.038129404 -0.07930819 -0.04144159 0.035429046 0.08591134 0.085510515 -0.04566387
-0.058817342 0.05405409 -0.009017251 0.06150105 -0.06807616 0.030352734 -0.025658228 -0.012146473
-0.048511334 -0.08762922 -0.057547923 -0.0056576766 -0.07216198 -0.019848235 -0.026284605 0.0060396157
0.07425069 -0.008449987 0.006948862 -0.087196775 0.013682455 -0.07949845 0.0223964 -0.06859935
-0.08168153 -0.04091622 0.06152246 0.043274544 0.07819814 -0.0027865116 -0.03565847 0.019303665
-0.055562966 0.05517503 0.081475876 -0.049995124 0.081708394 -0.034883413 0.0443506 -0.030663338
-0.038474735 0.02103705 0.027471147 0.020601407 -0.015683293 0.075551696 -0.040554218 0.0114806965
0.0358494 -0.08665282 0.036505073 -0.053837705 0.038417853 -0.059763014 -0.008441113 -0.07280236
0.018804774 0.08044375 0.056923397 -0.049195208 0.06616413 0.018217213 0.00034406432 -0.023693174
0.08475011 -0.066542424 0.06900587 0.06706143 0.018211544 0.02799087 -0.047018606 0.039358474
0.0035839844 -0.041297678 0.024346061 0.08309471 0.02502118 -0.061719038 0.04739251 0.029347546
-0.02503118 -0.03140775 0.045969956 0.072173886 -0.0350164 -0.05775909 0.082223766 -0.06730703
0.002343947 -0.039026268 0.015338339 -0.055970155 0.054640733 0.063074134 -0.063894875 0.029122353
0.011928983 0.084207155 -0.06755303 -0.055869773 -0.019523904 -0.065357625 -0.030167837 -0.049286824
0.009527437 0.031986177 -0.013135195 0.033722974 0.05589568 -0.077601254 -0.044360902 0.08593144
0.058632426 -0.08370291 0.051553853 -0.08153035 0.06289973 0.049378954 0.018174954 -0.08155472
-0.054127526 0.08688096 -0.06299435 -0.07847133 -0.07826165 -0.0022076908 0.042841844 -0.05087734
0.063020386 0.06501549 -0.04569171 -0.045617543 0.046762876 0.055608682 0.014762677 0.043888725
0.021762595 -0.059158556 -0.077450365 -0.0705809 -0.08829882 -0.05695812 -0.04944497 -0.009552658
-0.063473605 0.08056215 -0.050810337 0.027595393 -0.07778528 -0.016820624 -0.059006784 0.07803997
-0.040545452 -0.023905799 0.06930605 -0.0027911607 0.06023871 -0.04363394 -0.05514234 0.066135354
0.04464131 0.036467157 0.063963644 0.012321837 0.044416256 -0.044131465 -0.018249221 0.07783433
-0.069143504 0.0017584125 -0.062814444 0.051973693 0.085860796 0.05783268 0.023466773 -0.05652016
-0.015076563 -0.0781307 0.020900674 0.05924981 -0.006799083 -0.008122839 0.043628372 -0.045090504
0.08040536 0.010360047 -0.031838156 0.033557013 0.025845706 -0.013273604 0.072872065 -0.08747294
0.08613848 -0.072599865 0.012722559 -0.023491278 -0.009405382 -0.007756058 0.061983965 -0.04099009
0.055201553 0.0034202505 0.00937473 0.013619907 0.021757968 0.009432793 -0.084892206 -0.071860164
0.058725692 0.051574297 0.025668822 0.0061121546 -0.031107932 0.07096874 0.07713667 0.050867
-0.04878613 0.033983506 0.0076728724 0.02865374 0.056539886 0.08205206 0.0208935 0.051832892
-0.04545183 0.054266892 0.02558662 0.083089314 0.0046702884 0.08026358 -0.006884586 0.013593435
00000000: ed20 a13d 2e02 3d3d 98ad f73b 128a 633d
00000010: ae00 6c3d fc3a e43c 0875 bc3c 707b 563c
00000020: 2a09 583d 5d4b 90bd 1879 073d 4899 973c
00000030: 2f78 b03d 8709 29bd dcf5 96bc df0a 953d
00000040: a285 283d 942d 1cbd 556c a2bd a8be 29bd
00000050: 0c1e 113d 49f2 af3d 2320 af3d 0a0a 3bbd
00000060: 74ea 70bd d267 5d3d 18bd 13bc 86e8 7b3d
00000070: 846b 8bbd 4ca6 f83c 3431 d2bc 0002 47bc
00000080: d2b3 46bd f376 b3bd 5fb7 6bbd 0864 b9bb
00000090: a9c9 93bd c498 a2bc d052 d7bc f8e7 c53b
000000a0: bf10 983d d071 0abc 48b3 e33b 3994 b2bd
000000b0: 602c 603c 15d0 a2bd a878 b73c d17d 8cbd
000000c0: a548 a7bd c497 27bd fafe 7b3d a640 313d
000000d0: 5926 a03d e89d 36bb 9e0e 12bd b822 9e3c
000000e0: fe95 63bd 36ff 613d d3dc a63d b0c7 4cbd
000000f0: bb56 a73d e9e1 0ebd faa8 353d ae31 fbbc
00000100: af97 1dbd e455 ac3c 2c0b e13c 48c4 a83c
00000110: 407a 80bc d9ba 9a3d 2e1c 26bd 8819 3c3c
00000120: d2d6 123d 0977 b1bd 5886 153d ed84 5cbd
00000130: 0a5c 1d3d 10ca 74bd 984c 0abc 6719 95bd
00000140: 780c 9a3c b1bf a43d 8228 693d ea80 49bd
00000150: 0f81 873d 443c 953c 8863 b439 3018 c2bc
00000160: 7791 ad3d 6547 88bd f352 8d3d 8157 893d
00000170: 6030 953c 1c4d e53c 9596 40bd 5a36 213d
00000180: 48e1 6a3b c127 29bd 6471 c73c 8f2d aa3d
00000190: 38f9 cc3c 1acd 7cbd a61e 423d 446a f03c
000001a0: 300e cdbc 6aa5 00bd fe4a 3c3d e7cf 933d
000001b0: 5b6d 0fbd cc94 6cbd ef64 a83d 45d8 89bd
000001c0: e89c 193b 02da 1fbd a84d 7b3c f640 65bd
000001d0: f6ce 5f3d 032d 813d 51db 82bd 0092 ee3c
000001e0: c871 433c cd74 ac3d 3e59 8abd b4d7 64bd
000001f0: 98f0 9fbc 38da 85bd 8a22 f7bc fbe0 49bd
00000200: f818 1c3c f003 033d 0035 57bc 1a21 0a3d
00000210: def2 643d 68ed 9ebd c7b3 35bd d3fc af3d
00000220: 8e28 703d 6e6c abbd 222a 533d 62f9 a6bd
00000230: 93d1 803d 9641 4a3d a4e3 943c 2906 a7bd
00000240: d3b4 5dbd a5ee b13d 2f03 81bd 94b5 a0bd
00000250: a547 a0bd e8ae 10bb ee7a 2f3d c264 50bd
00000260: d510 813d d726 853d 3b27 3bbd 76d9 3abd
00000270: 6e8a 3f3d eec5 633d 28df 713c aac4 333d
00000280: 7847 b23c 3e50 72bd 4c9e 9ebd b88c 90bd
00000290: 03d6 b4bd eb4c 69bd cf86 4abd c082 1cbc
000002a0: 73fe 81bd c5fd a43d 801e 50bd bc0f e23c
000002b0: e44d 9fbd 68cb 89bc 19b1 71bd 6bd3 9f3d
000002c0: fd12 26bd 18d6 c3bc 55f0 8d3d e8eb 36bb
000002d0: debc 763d 81b9 32bd efdc 61bd f971 873d
000002e0: ced9 363d 965e 153d 5fff 823d 88e1 493c
000002f0: d2ed 353d 32c3 34bd 647f 95bc 9b67 9f3d
00000300: 1c9b 8dbd 887a e63a dca4 80bd 5ee2 543d
00000310: c9d7 af3d f6e1 6c3d 643d c03c af81 67bd
00000320: b003 77bc fd02 a0bd e437 ab3c eeaf 723d
00000330: d8ca debb a815 05bc aab3 323d d2b0 38bd
00000340: 91ab a43d 30bd 293c ba68 02bd 1473 093d
00000350: 60ba d33c 8879 59bc f33d 953d 0325 b3bd
00000360: 5f69 b03d 3daf 94bd 4872 503c c870 c0bc
00000370: 0819 1abc 8826 febb e6e2 7d3d 3ae5 27bd
00000380: 061b 623d 4826 603b 7898 193c 0826 5f3c
00000390: c43d b23c 008c 1a3c f7db adbd 6c2b 93bd
000003a0: 5a8a 703d 923f 533d 6c47 d23c 7848 c83b
000003b0: 10d6 febc 0f58 913d d5f9 9d3d ea59 503d
000003c0: f7d3 47bd 4a32 0b3d b86c fb3b 40bb ea3c
000003d0: 5e96 673d e90a a83d d828 ab3c ba4e 543d
000003e0: b32b 3abd f646 5e3d 089b d13c bb2a aa3d
000003f0: 3809 993b 3b61 a43d 1898 e1bb 00b7 5e3c

bias_ih_l0 f4 [512]
0.074533544 -0.040622804 0.019957652 -0.03193302 -0.06012638 -0.05519202 0.07250516 0.054080483
-0.014866307 0.07788744 0.054982193 0.0046755476 -0.044735134 -0.049207903 -0.05658263 0.01571086
-0.03622143 0.02913911 0.013596236 -0.043679208 -0.057713907 -0.008306734 0.07946334 -0.026199862
-0.048909802 -0.05133828 0.020673756 -0.057397246 -0.0030274559 -0.049594473 -0.0038778023 0.009514444
0.007522147 0.07729641 -0.010876397 -0.02495987 -0.007838867 0.01974559 0.024357334 0.032499187
-0.08758456 0.065583445 0.07417474 -0.0039115464 0.016597718 -0.056474827 -0.069645025 0.016365185
-0.010420106 -0.050667733 -0.08364225 0.04490248 -0.006268493 0.038962856 -0.060476754 0.032431487
-0.011121638 -0.007686851 -0.028849315 0.069073565 -0.05311807 -0.014498425 -0.028990218 0.057449136
0.057158716 -0.010465257 0.035350412 -0.079277374 0.0053973873 0.0020178212 -0.043681607 0.055257123
-0.03686987 0.084304236 0.007403175 -0.0026445184 0.026855668 -0.07370886 -0.039566267 0.05281672
-0.07430851 -0.00990966 -0.08264472 -0.020544661 -0.014949225 0.042607374 0.016466774 -0.06252966
0.076809846 -0.031046052 -0.073183015 0.017108582 -0.046358902 0.06330409 0.058147527 0.0124609545
-0.04131265 -0.03669278 -0.03218967 -0.033636097 0.046756618 0.050203614 -0.018711857 -0.062246244
0.06602606 -0.093055725 -0.06058334 0.0064320466 0.08361136 0.085230075 0.011940435 -0.039568886
0.029205756 0.0812909 0.08111587 0.03395191 0.079839595 0.018960081 -0.073965505 0.040890034
-0.05672997 -0.035484653 0.08808178 -0.07151947 -0.014895745 -0.029886518 -0.08225951 0.008848354
-0.08804457 0.023313874 0.0430211 -0.0794589 0.062961675 -0.0510267 0.047659606 -0.06267594
0.019284792 0.03666737 0.032795034 0.03262843 0.02695914 0.024332657 -0.058858458 0.05064375
-0.0878861 -0.0035183826 0.02601941 -0.07835158 -0.07007976 0.06472472 0.0204629 0.057990927
0.079699956 -0.007972822 0.04522807 -0.06986918 -0.039362907 -0.02820911 0.016473219 8.9562556e-05
0.057942875 -0.056768313 0.004238474 -0.0008670618 -0.0023410886 0.03237483 0.03110332 -0.041244697
-0.046553865 0.020518787 0.034373403 0.08665164 -0.045363195 -0.053207915 -0.015144557 0.034537315
0.009538077 0.053149365 -0.063838236 -0.0809074 0.0530856 -0.081182286 -0.0040082224 -0.06589158
-0.052177545 0.045400288 -0.05020412 0.09048796 0.02265437 -0.060891584 0.062511034 0.050650094
0.051115073 0.007968587 0.0287383 -0.08216715 -0.045063235 0.055116348 0.07341585 0.029433027
-0.04651271 -0.032356225 -0.038205512 -0.059258476 -0.054049604 0.07145507 0.083523355 0.008101009
-0.08411175 -0.022375282 -0.05763682 0.04268623 0.043899737 0.073759355 0.035388567 0.03699356
0.05176475 0.0036464203 -0.057362054 0.0022062624 -0.02401842 -0.02371975 -0.06988361 -0.026288684
-0.0475088 -0.010624416 -0.039076224 -0.0913 -0.03506804 0.077742346 -0.05931842 0.08283162
0.03813062 0.027049402 0.06478528 0.039377075 0.017806433 0.07701332 0.031042386 0.041334562
0.039011527 0.059649758 -0.04804246 -0.08832422 -0.07811305 0.029263906 0.012354679 -0.08412988
0.05834194 0.077867605 -0.08597871 0.064554594 0.017479928 -0.040820133 0.059962276 -0.020393074
00000000: 0ba5 983d 1964 26bd 3b7e a33c 33cc 02bd
00000010: 1447 76bd 0711 62bd 967d 943d 7f83 5d3d
00000020: d091 73bc 7383 9f3d 0235 613d 5635 993b
00000030: 303c 37bd 3a8e 49bd 30c3 67bd 10b4 803c
00000040: ec5c 14bd 25b5 ee3c bfc2 5e3c f8e8 32bd
00000050: 6b65 6cbd f818 08bc adbd a23d 18a1 d6bc
00000060: a555 48bd 1748 52bd 025c a93c 6019 6bbd
00000070: 4868 46bb 9323 4bbd ba22 7ebb 78e2 1b3c
00000080: 587c f63b 954d 9e3d ea32 32bc a478 ccbc
00000090: 976e 00bc 81c1 a13c 0889 c73c de1d 053d
000000a0: 895f b3bd 9d50 863d ede8 973d 6e2c 80bb
000000b0: f0f7 873c 2652 67bd 0da2 8ebd 4810 863c
000000c0: 18b9 2abc f888 4fbd a14c abbd aaeb 373d
000000d0: ee67 cdbb 8497 1f3d 79b6 77bd e1d6 043d
000000e0: 8837 36bc fbe1 fbbb 6655 ecbc 7176 8d3d
000000f0: 5592 59bd cd8a 6dbc e57c edbc c94f 6b3d
00000100: 421f 6a3d 7876 2bbc 98cb 103d 2d5c a2bd
00000110: 91dc b03b 6c3d 043b 7ceb 32bd 4b55 623d
00000120: dc04 17bd b3a7 ac3d 5596 f23b a84f 2dbb
00000130: 6b00 dc3c acf4 96bd 3d10 22bd 5856 583d
00000140: 0f2f 98bd 205c 22bc a341 a9bd 474d a8bc
00000150: 98ed 74bc 1285 2e3d 54e5 863c 8d0f 80bd
00000160: 7b4e 9d3d 4a54 febc fae0 95bd 4c27 8c3c
00000170: d5e2 3dbd 93a5 813d 1a2c 6e3d 0829 4c3c
00000180: 7437 29bd 2b4b 16bd 51d9 03bd 01c6 09bd
00000190: de83 3f3d 4ea2 4d3d 9c49 99bc ebf5 7ebd
000001a0: ac38 873d 0094 bebd 3c26 78bd ebc3 d23b
000001b0: 6f3c ab3d 1b8d ae3d d0a1 433c fc12 22bd
000001c0: e940 ef3c d87b a63d 1420 a63d 2811 0b3d
000001d0: f182 a33d 2c52 9b3c 3a7b 97bd 4f7c 273d
000001e0: af5d 68bd 5b58 11bd 3864 b43d cd78 92bd
000001f0: 480d 74bc 92d4 f4bc ad77 a8bd b0f8 103c
00000200: b650 b4bd bdfc be3c e536 303d 59bb a2bd
00000210: 0df2 803d 5f01 51bd b836 433d 3e5c 80bd
00000220: 24fb 9d3c 8630 163d 1654 063d 63a5 053d
00000230: 6ad9 dc3c 4855 c73c 9115 71bd d26f 4f3d
00000240: a1fd b3bd aa94 66bb a826 d53c cb76 a0bd
00000250: fa85 8fbd 658e 843d d0a1 a73c e587 6d3d
00000260: bb39 a33d 70a0 02bc 1241 393d 9317 8fbd
00000270: 003b 21bd cb16 e7bc d8f2 863c 88d3 bb38
00000280: 8255 6d3d e485 68bd e6e2 8a3b 884b 63ba
00000290: f36c 19bb 789b 043d 64cc fe3c 33f0 28bd
000002a0: 44af 3ebd 0417 a83c 20cb 0c3d 6a76 b13d
000002b0: c2ce 39bd 8bf0 59bd e020 78bc 0077 0d3d
000002c0: 9845 1c3c 26b3 593d 9fbd 82bd c7b2 a5bd
000002d0: 4970 593d e642 a6bd 6857 83bb 2af2 86bd
000002e0: 1fb8 55bd a7f5 393d d6a2 4dbd c051 b93d
000002f0: a895 b93c 7469 79bd c905 803d 7976 4f3d
00000300: 0a5e 513d ad8e 023c 956c eb3c 4047 a8bd
00000310: 3a94 38bd aec1 613d 0d5b 963d 881d f13c
00000320: 1d84 3ebd f687 04bd 627d 1cbd 04b9 72bd
00000330: 1e63 5dbd 0957 923d 4b0e ab3d 18ba 043c
00000340: c842 acbd 5e4c b7bc 9614 6cbd c2d7 2e3d
00000350: 36d0 333d 250f 973d 9af3 103d 8f86 173d
00000360: 4607 543d c8f8 6e3b 79f4 6abd f196 103b
00000370: 47c2 c4bc ec4f c2bc 231f 8fbd 5e5b d7bc
00000380: 9698 42bd 0812 2ebc 640e 20bd 7ffb babd
00000390: 81a3 0fbd 6137 9f3d dff7 72bd a0a3 a93d
000003a0: da2e 1c3d b596 dd3c 25ae 843d db49 213d
000003b0: ccde 913c 29b9 9d3d 9a4c fe3c 6e4e 293d
000003c0: 8dca 1f3d 4e53 743d 2cc8 44bd 54e3 b4bd
000003d0: bcf9 9fbd dcba ef3c 486b 4a3c 494c acbd
000003e0: f5f7 6e3d 0d79 9f3d 9b15 b0bd 3335 843d
000003f0: 1132 8f3c 0333 27bd 019b 753d 600f a7bc

bias_hh_l0 f4 [512]
-0.047082156 0.0015014568 -0.00059354655 -0.0850956 -0.02735011 -0.077789344 -0.008265886 0.060043287
-0.035186365 -0.044799533 0.060945846 -0.007722809 0.051048785 0.07303859 -0.07495048 0.03409782
-0.0758812 0.08155207 -0.035318196 -0.022007965 -0.068361625 0.041331448 0.01680051 0.03223225
0.009388074 0.07139864 0.062837355 0.011438668 0.03841374 -0.082579054 -0.078771956 0.021775365
0.026948936 -0.027391423 -0.045186106 0.026897788 -0.0057184566 0.07730104 0.033941597 -0.014925234
0.034441307 -0.06576608 0.07054182 0.06757407 0.083382346 -0.080461055 0.04037987 0.051121213
-0.020731203 -0.007217122 -0.05123398 0.009622216 0.014080565 -0.024245039 0.016130801 -0.081358664
0.045449518 0.06297096 -0.014182605 0.079213716 -0.055791948 0.0676928 -0.043694094 0.033314135
-0.03262588 -0.037173748 -0.012919858 -0.062001456 -0.071777895 -0.030530928 0.03555573 -0.081512965
-0.057079766 -0.055936564 -0.016192788 0.017085738 0.06312464 0.0621866 -0.007767398 0.036567435
0.081646144 -0.07518366 0.008080356 0.06058696 -0.073704004 0.04394888 0.053135462 -0.016451642
0.048717164 -0.068041384 0.01581689 0.05723829 -0.06244883 -0.062349364 -0.07232614 0.066374846
0.080973096 0.07337927 0.08270017 -0.0713081 -0.079343796 -0.060727112 0.07443141 -0.016371042
-0.018199665 0.033386752 -0.0080954535 -0.055655625 -0.037540823 0.0045670546 0.08764931 0.036200717
0.014518135 -0.054198004 -0.0144934235 -0.07752968 0.051517986 0.014009386 0.07389469 -0.07685495
0.045862876 -0.044506215 -0.020093141 -0.057794187 -0.08688028 0.016424857 0.038911603 0.04188191
-0.046791635 -0.056577362 0.053677414 -0.05726539 0.038837112 -0.05454182 0.026361413 0.0089917295
-0.02371718 -0.06535897 0.017196186 -0.0057862774 0.026114961 0.06562743 -0.03873998 -0.029641688
0.08426895 -0.027677868 -0.059932124 0.0822897 -0.015131044 0.0674363 0.056875445 0.043346215
-0.064503826 0.085000046 0.06580398 -0.011457361 -0.012566812 0.024488052 -0.009556957 -0.06848253
0.067481704 0.078784235 -0.044035733 -0.056097884 0.062553674 -0.020163741 0.008699596 0.05505764
0.05842588 -0.08662812 -0.037199248 0.03434609 -0.014301933 0.060639925 0.008663438 -0.06613339
0.046776466 -0.071541846 -0.018164983 0.007260654 -0.05430603 -0.08826444 -0.0046961345 -0.035211757
0.05620705 0.02361584 0.03571807 0.0013207837 0.03274656 -0.06991466 -0.06535592 -0.031476714
-0.08559718 -0.0127644045 -0.010254307 0.023618445 -0.051341925 -0.039663356 -0.07560461 0.00010356079
0.0508305 0.02849038 -0.034272347 -0.035486758 0.01719307 -0.02643246 0.02534315 0.031423144
-0.045188077 -0.05830201 -0.0875651 0.014732787 -0.08762009 0.082376964 -0.030939326 -0.04317462
-0.027796738 -0.015882924 -0.026135908 0.033295218 -0.03825435 -0.0801059 -0.015080318 0.062279962
-0.031488717 0.06284953 0.034820363 -0.023652175 0.0043709762 -0.07476391 0.06966921 0.010362681
0.058556147 -0.06200698 -0.07183019 -0.015259109 0.04036904 0.028829172 0.029888371 -0.08818726
0.07887797 -0.039763227 -0.045575984 0.066523336 -0.002929182 0.070006795 0.019535586 -0.071433015
0.019081445 0.018444754 0.041091856 -0.07127384 0.046395667 -0.06465753 0.07341947 -0.07378985
00000000: 38d9 40bd 88cc c43a 3c98 1bba 9a46 aebd
00000010: 560d e0bc 0550 9fbd a46d 07bc f3ef 753d
00000020: 941f 10bd b77f 37bd 5aa2 793d 9e0f fdbb
00000030: 8818 513d 4295 953d a37f 99bd 28aa 0b3d
00000040: 9a67 9bbd c604 a73d d0a9 10bd 0c4a b4bc
00000050: 2e01 8cbd 2a4b 293d 39a1 893c f705 043d
00000060: 70d0 193c 7339 923d dfb0 803d 4069 3b3c
00000070: ba57 1d3d 351f a9bd 3153 a1bd 4062 b23c
00000080: 04c4 dc3c fa63 e0bc 1115 39bd c058 dc3c
00000090: e461 bbbb 0250 9e3d 5806 0b3d f888 74bc
000000a0: 5412 0d3d 5eb0 86bd 3b78 903d 4664 8a3d
000000b0: 5dc4 aa3d c4c8 a4bd 5d65 253d 7a64 513d
000000c0: 7cd4 a9bc 9b7d ecbb b9da 51bd 80a6 1d3c
000000d0: 2cb2 663c 889d c6bc be24 843c 5f9f a6bd
000000e0: 4629 3a3d ebf6 803d 285e 68bc cd3a a23d
000000f0: 1986 64bd 86a2 8a3d 94f8 32bd 6774 083d
00000100: b7a2 05bd 8043 18bd d0ad 53bc 3df5 7dbd
00000110: 4a00 93bd ff1b fabc e3a2 113d 45f0 a6bd
00000120: 79cc 69bd bd1d 65bd bda6 84bc 64f7 8b3c
00000130: 7e47 813d 60b7 7e3d a885 febb bcc7 153d
00000140: 1836 a73d e4f9 99bd 7863 043c 082a 783d
00000150: 20f2 96bd be03 343d 92a4 593d 98c5 86bc
00000160: a68b 473d 4859 8bbd 6c92 813c b272 6a3d
00000170: 58ca 7fbd 0c62 7fbd ba1f 94bd 89ef 873d
00000180: 39d5 a53d df47 963d b55e a93d fb09 92bd
00000190: 007f a2bd febc 78bd 7f6f 983d 901c 86bc
000001a0: 7717 95bc 8cc0 083d cba2 04bc 27f7 63bd
000001b0: 68c4 19bd 3ba7 953b 7b81 b33d 3447 143d
000001c0: 79dd 6d3c bafe 5dbd d375 6dbc e2c7 9ebd
000001d0: 8604 533d a087 653c 1956 973d 2166 9dbd
000001e0: b6da 3b3d 264c 36bd 5f9a a4bc 99b9 6cbd
000001f0: 4aee b1bd 6c8d 863c c661 1f3d 5e8c 2b3d
00000200: 96a8 3fbd aabd 67bd d9dc 5b3d 1d8f 6abd
00000210: aa13 1f3d 3e67 5fbd e4f3 d73c 0c52 133c
00000220: 884a c2bc ecda 85bd 04df 8c3c d09a bdbb
00000230: 0bef d53c ad67 863d d0ad 1ebd 20d3 f2bc
00000240: 3395 ac3d b2bc e2bc 637b 75bd 8187 a83d
00000250: 33e8 77bc 0b1c 8a3d 3af6 683d cd8b 313d
00000260: 951a 84bd 8114 ae3d 3dc4 863d a8b7 3bbc
00000270: 08e5 4dbc 2b9b c83c c894 1cbc 9240 8cbd
00000280: d933 8a3d a159 a13d d05e 34bd e5c6 65bd
00000290: 241c 803d 6e2e a5bc c088 0e3c 1f84 613d
000002a0: fa4f 6f3d 156a b1bd 3d5e 18bd 7cae 0c3d
000002b0: a852 6abc 9261 783d 18f1 0d3c f170 87bd
000002c0: ae98 3f3d 8884 92bd bbce 94bc c8ea ed3b
000002d0: 0070 5ebd fdc3 b4bd 08e2 99bb 343a 10bd
000002e0: 5d39 663d 0276 c13c 1c4d 123d 261e ad3a
000002f0: 4221 063d 6b2f 8fbd 53d9 85bd baed 00bd
00000300: 934d afbd cb21 51bc ae01 28bc 787b c13c
00000310: e94b 52bd 0b76 22bd 97d6 9abd c72e d938
00000320: a433 503d a864 e93c 2961 0cbd 905a 11bd
00000330: 7bd8 8c3c e388 d8bc 709c cf3c 8eb5 003d
00000340: 2217 39bd 17ce 6ebd 5555 b3bd ca61 713c
00000350: 2972 b3bd 41b5 a83d 7874 fdbc dfd7 30bd
00000360: fcb5 e3bc e81c 82bc f91a d6bc 9160 083d
00000370: 98b0 1cbd 900e a4bd 7013 77bc 4619 7f3d
00000380: 50fa 00bd 41b7 803d cc9f 0e3d 35c2 c1bc
00000390: 683a 8f3b d21d 99bd bbae 8e3d 3cc8 293c
000003a0: 92d8 6f3d 08fb 7dbd b51b 93bd 5801 7abc
000003b0: 025a 253d 282b ec3c 75d8 f43c 869b b4bd
000003c0: c68a a13d c4de 22bd e2ad 3abd 633d 883d
000003d0: 85f7 3fbb b95f 8f3d 1809 a03c 794b 92bd
000003e0: b150 9c3c 7419 973c ef4f 283d 05f8 91bd
000003f0: 6209 3e3d 2b6b 84bd f25c 963d 221f 97bd

weight_ih_l1 f4 [512, 128]
-0.055254575 0.06434116 0.0890389 -0.084071696 0.030275103 0.08703523 -0.07871197 -0.03450177
0.053195175 -0.065475754 -0.024001732 0.029867621 -0.037921242 0.06876376 0.08439409 -0.047038555
-0.07103712 -0.041411463 -0.032312937 0.05770264 -0.078716435 -0.05524427 -0.07054108 -0.06762319
0.07862034 0.056117687 0.07955846 -0.04252799 -0.050577004 0.083595626 -0.050095916 0.07207723
-0.08770879 -0.0005268727 -0.007674461 -0.079691365 0.036747247 -0.058775697 -0.021941347 -0.08143838
-0.02842179 -0.038846653 0.04852272 0.01876743 0.011861026 0.059454292 -0.06477866 0.044831507
-0.08401371 -0.020274702 0.055509344 0.08601048 -0.0141848335 0.03729451 -0.047333468 -0.073602855
0.03539065 0.025133243 -0.0018781135 0.044361074 0.013112247 0.05621878 -0.028746756 0.040334947
0.078738086 -0.015470616 -0.03462721 0.033111416 -0.076078996 -0.025541486 0.043995664 0.04910316
-0.06340378 0.07216395 -0.010220095 -0.026414217 -0.047489796 -0.05410066 -0.026098423 0.07951901
-0.063553505 0.05344522 0.044740535 -0.033974633 0.032191798 0.011483842 -0.042714942 0.0037708846
-0.0081381705 -0.015480414 -0.017642332 -0.0043166294 -0.0067127845 -0.019884264 -0.0366033 0.08667866
0.08718916 0.08332371 0.06792792 -0.035664555 0.036096964 -0.054514278 0.07147975 0.08350375
0.060412873 0.04331374 0.06031354 -0.014958923 0.023686009 -0.08788583 0.04219048 0.07138674
0.0104836915 0.026810402 0.035188872 0.030293979 -0.04006867 0.044108164 -0.008499771 -0.07157484
-0.027074149 -0.00092748256 -0.026674053 0.06512418 -0.041262 -0.043388177 -0.015421352 -0.023973607
-0.021390006 -0.026599102 -0.07155069 0.034059577 -0.06424459 -0.048255365 0.07443185 -0.047664847
0.009194914 -0.0711516 0.0690693 0.031547267 -0.0380143 0.028024578 0.020705309 -0.040225316
-0.052973155 -0.056676127 0.049449425 0.06452086 0.034651045 0.061901353 -0.002845879 -0.06066017
-0.067127526 0.004929181 -0.08859766 0.0008905311 -0.06123651 -0.079877906 0.043304227 -0.08314704
0.06600347 0.06468921 -0.041396864 -0.06237456 -0.0024335696 -0.06701922 -0.03607617 -0.078916624
-0.08085881 0.07301091 0.034895033 -0.062966414 0.060963057 -0.0659844 0.0022893215 -0.035948444
-0.006904822 0.032350898 0.087173805 -0.023411468 -0.07336423 0.05375602 0.00095761794 0.044851094
0.0054859994 -0.012137506 -0.024706177 -0.06930527 -0.055309385 -0.06486294 -0.04214601 -0.038112648
-0.033516996 -0.0048780325 -0.0878519 0.0104839755 0.05153448 0.02209665 0.006848312 -0.03613307
-0.03956085 0.014704637 0.061312716 0.037290897 0.012707229 0.062373377 -0.083964825 0.0049442165
0.011000658 -0.055049382 -0.020543741 0.082794584 -0.017107204 -0.014458978 0.042034082 -0.05974041
-0.03841521 0.06009447 -0.009651495 -0.05240875 0.013225094 0.031941637 -0.081206195 -0.06705205
0.026216295 -0.07848956 0.03714367 -0.065691985 -0.08836095 -0.07516363 -0.05701357 -0.023998663
0.009569485 0.08196427 0.054202914 0.048133325 -0.06925423 0.07839285 0.053357128 0.048499044
-0.030748064 0.040237885 0.0734272 0.0029475037 -0.036412846 -0.0035193518 -0.039449193 0.030367525
0.004895985 0.062280554 0.03350422 0.03371596 0.051116336 -0.012961994 -0.010512916 -0.07261467
00000000: 9f52 62bd 4cc5 833d 075a b63d c82d acbd
00000010: 7e03 f83c 873f b23d be33 a1bd ba51 0dbd
00000020: 2fe3 593d 2718 86bd 489f c4bc f1ac f43c
00000030: 4e53 1bbd 04d4 8c3d cfd6 ac3d 80ab 40bd
00000040: e97b 91bd 119f 29bd 925a 04bd 9a59 6c3d
00000050: 1536 a1bd d147 62bd d777 90bd 077e 8abd
00000060: b303 a13d a9db 653d 8cef a23d d431 2ebd
00000070: d529 4fbd 2f34 ab3d 6031 4dbd 3a9d 933d
00000080: aba0 b3bd d41d 0aba 0c7a fbbb 3a35 a3bd
00000090: 4884 163d c9be 70bd 57be b3bc 2ac9 a6bd
000000a0: d0d4 e8bc ab1d 1fbd c2bf 463d 27be 993c
000000b0: c054 423c 5886 733d adaa 84bd 3ea1 373d
000000c0: 610f acbd 2217 a6bc c45d 633d 4326 b03d
000000d0: 8167 68bc 21c2 183d bde0 41bd 18bd 96bd
000000e0: c9f5 103d 3be4 cd3c 082b f6ba f5b3 353d
000000f0: c0d4 563c aa45 663d 517e ebbc 4236 253d
00000100: 6f41 a13d 7778 7dbc 43d5 0dbd d69f 073d
00000110: 4ecf 9bbd 613c d1bc cc34 343d 6520 493d
00000120: d7d9 81bd b1ca 933d 2f72 27bc a162 d8bc
00000130: a984 42bd a798 5dbd 5ccc d5bc ddda a23d
00000140: 5728 82bd 60e9 5a3d da41 373d fc28 0bbd
00000150: 8cdb 033d b926 3c3c ddf5 2ebd f220 773b
00000160: f655 05bc 90a1 7dbc a786 90bc 8372 8dbb
00000170: ebf6 dbbb 53e4 a2bc 58ed 15bd 9584 b13d
00000180: 3b90 b23d 9fa5 aa3d cb1d 8b3d ff14 12bd
00000190: 69da 133d 5d4a 5fbd fa63 923d 0404 ab3d
000001a0: 7d73 773d c069 313d 550b 773d 4516 75bc
000001b0: 2909 c23c 7cfd b3bd edcf 2c3d 3633 923d
000001c0: cac3 2b3c 7da1 db3c 3522 103d 142b f83c
000001d0: 0c1f 24bd c3aa 343d a042 0bbc d495 92bd
000001e0: 9bca ddbc 4d22 73ba 8b83 dabc d35f 853d
000001f0: 5802 29bd cdb7 31bd d7a9 7cbc 4c64 c4bc
00000200: 183a afbc 5ce6 d9bc 2b89 92bd 0e82 0b3d
00000210: ab92 83bd 6ba7 45bd ba6f 983d 373c 43bd
00000220: 44a6 163c eeb7 91bd 3574 8d3d b537 013d
00000230: e2b4 1bbd cd93 e53c 2e9e a93c 4dc3 24bd
00000240: 61fa 58bd 3a25 68bd 7b8b 4a3d 8323 843d
00000250: 41ee 0d3d 468c 7d3d ed81 3abb cc76 78bd
00000260: 287a 89bd f884 a13b b172 b5bd 8872 693a
00000270: 22d3 7abd 0797 a3bd c65f 313d ff48 aabd
00000280: d42c 873d c77b 843d c28f 29bd 777c 7fbd
00000290: 867c 1fbb 5f41 89bd 9bc4 13bd 0a9f a1bd
000002a0: 4e99 a5bd be86 953d 18ee 0e3d 89f4 80bd
000002b0: 66b4 793d d422 87bd 7108 163b ad3e 13bd
000002c0: d841 e2bb 6082 043d 2e88 b23d 68c9 bfbc
000002d0: fc3f 96bd 462f 5c3d a708 7b3a c8b5 373d
000002e0: e6c3 b33b 64dc 46bc 9c64 cabc ecef 8dbd
000002f0: 188c 62bd dcd6 84bd 4ba1 2cbd 021c 1cbd
00000300: 1e49 09bd e7d7 9fbb b2eb b3bd fbc4 2b3c
00000310: d215 533d 0904 b53c ce67 e03b 4500 14bd
00000320: 8f0a 22bd b8eb 703c 0b23 7b3d 57be 183d
00000330: fb31 503c 3a7b 7f3d c0f5 abbd 1803 a23b
00000340: 1b3c 343c 767b 61bd 594b a8bc 3590 a93d
00000350: 6824 8cbc 59e5 6cbc ee2b 2c3d 5cb2 74bd
00000360: 4459 1dbd 9e25 763d 4e21 1ebc 8faa 56bd
00000370: 11ae 583c 3cd5 023d 6f4f a6bd 9652 89bd
00000380: 8ec3 d63c 22bf a0bd f623 183d 8589 86bd
00000390: 96f6 b4bd 64ef 99bd 1087 69bd d898 c4bc
000003a0: 54c9 1c3c e2dc a73d e003 5e3d 7327 453d
000003b0: 29d5 8dbd 6e8c a03d 018d 5a3d efa6 463d
000003c0: 5de3 fbbc 7bd0 243d 0061 963d e82a 413b
000003d0: a325 15bd eda4 66bb 7a95 21bd 51c5 f83c
000003e0: 806e a03b e519 7f3d b93b 093d bf19 0a3d
000003f0: 5d5f 513d 8b5e 54bc 5e3e 2cbc 00b7 94bd

weight_hh_l1 f4 [512, 128]
-0.07218372 0.00025222087 0.02709175 0.019548176 0.055739123 0.072120905 0.06263448 -0.013423468
0.06975644 -0.08502225 -0.02801524 -0.013458789 0.08004327 -0.019520756 0.05119687 -0.06264551
0.050901607 0.046193216 -0.02350509 -0.027046204 0.03118762 0.0773376 -0.010609952 0.08642123
-0.070848875 0.07348245 0.0129393805 -0.01627794 0.015222714 -0.02841911 0.0028809248 -0.08440401
0.043444455 0.013830413 0.09090871 0.039776396 0.01641163 0.041589644 0.0072825844 -0.0697228
0.07327645 0.010977936 -0.028390452 -0.08355808 0.083466016 -0.06484063 -0.024079511 0.052917775
-0.067839675 -0.06107409 0.04809634 -0.06806792 0.021530766 -0.0652082 -0.011299973 0.056514256
-0.07693096 -0.08546136 -0.06241349 -0.03980108 -0.011981046 -0.005387744 -0.07664944 -0.078124635
-0.06765182 -0.06567888 -0.023785857 -0.013115791 -0.019974444 -0.08057656 -0.029859077 0.06512886
0.001537245 0.07733825 0.07411689 0.0013914083 0.041034922 0.025598114 0.074107796 0.077763095
-0.07247245 0.023991978 -0.03538208 -0.027426874 0.06308426 -0.056899182 -0.025243625 0.062767535
-0.068629004 -0.032605056 -0.08137924 0.0759161 0.03714415 0.013277428 -0.07157217 0.06647327
0.079871945 -0.07883441 0.07172307 0.034320105 -0.014839393 -0.01908536 0.048783813 0.06406165
-0.048088398 -0.028795741 0.034156416 0.042764112 -0.022988515 -0.01106966 0.013033403 -0.02606907
0.014886783 0.0148182465 0.019643849 0.07108342 -0.039010096 -0.04204389 0.042809308 0.07813729
0.063452914 0.027890267 0.023686126 -0.016747054 -0.05414475 0.0056514055 0.061617628 -0.06460345
0.004989966 0.005013881 -0.02326598 -0.07585246 -0.020065913 0.02904935 -0.044644874 0.03077467
-0.0117951315 -0.064853065 -0.0068119843 -0.06117155 -0.070999846 -0.067485034 0.0218208 -0.04257928
-0.060294922 -0.024124673 -0.07557494 -0.049648598 -0.07245049 0.0590599 0.065082744 0.069896616
0.036713865 -0.03531758 0.009253432 0.06363078 -0.011918742 -0.061197683 -0.0039113755 0.030281406
0.089028195 0.075431205 -0.04965642 -0.08418801 -0.038410358 0.023643777 0.006284197 -0.038603067
0.009548259 -0.03207886 0.041475937 0.07357094 0.022259286 -0.0126902815 0.081768386 0.06603929
0.008530961 0.0059504816 -0.03817905 0.005031818 0.007622489 0.042466983 0.06582913 0.056991957
0.046001025 -0.041834082 -0.058536526 0.08519889 -0.032500904 0.051250298 -0.03127672 -0.073290646
-0.06307587 -0.03945835 0.035986904 -0.00936009 -0.023345048 0.02959447 -0.03397657 0.075859144
-0.04749525 0.074422784 0.08492739 0.064839445 -0.032485418 0.0058325753 0.052360423 0.057058938
-0.07855921 -0.06409869 -0.006765598 -0.0068952013 -0.044371538 0.03065926 0.022556232 -0.04086907
0.037325855 -0.029662557 0.049824424 -0.005033801 -0.077722155 0.078528196 -0.024581198 0.007010315
0.027878983 0.042543035 0.03042206 -0.017158242 -0.02917228 0.036940675 -0.08955488 0.021764334
-0.017385961 -0.059171584 -0.029108645 -0.0044852616 -0.08155711 -0.014374381 -0.007471391 0.043564845
0.05698134 -0.04073269 -0.031156452 0.041115712 -0.034993995 0.013246138 -0.07697246 -0.08182251
-0.017668884 0.004723239 0.00943475 -0.03834442 -0.0054847933 0.082414374 0.07798361 0.039758578
00000000: 0fd5 93bd 833c 8439 85ef dd3c 7f23 a03c
00000010: b54e 643d 20b4 933d 8246 803d 1bee 5bbc
00000020: 77dc 8e3d 2520 aebd 3780 e5bc 4182 5cbc
00000030: baed a33d fee9 9fbc cfb3 513d 4a4c 80bd
00000040: 347e 503d 1935 3d3d bf8d c0bc 0090 ddbc
00000050: 2e7d ff3c 2d63 9e3d 5dd5 2dbc 9dfd b03d
00000060: 3719 91bd f77d 963d b2ff 533c 5059 85bc
00000070: b168 793c 32cf e8bc e6cd 3c3b 02dc acbd
00000080: d0f2 313d f598 623c 592e ba3d 93ec 223d
00000090: af71 863c e759 2a3d bfa2 ee3b d4ca 8ebd
000000a0: f711 963d cddc 333c 1893 e8bc 8020 abbd
000000b0: 3bf0 aa3d 2acb 84bd 6542 c5bc 4fc0 583d
000000c0: 87ef 8abd d328 7abd ab00 453d 3267 8bbd
000000d0: 4a61 b03c e08b 85bd 8623 39bc 7e7b 673d
000000e0: fb8d 9dbd 5e06 afbd 4aa5 7fbd 7506 23bd
000000f0: 264c 44bc ac8b b0bb 62fa 9cbd cfff 9fbd
00000100: 0a8d 8abd a682 86bd 8fda c2bc 9de3 56bc
00000110: 72a1 a3bc 5305 a5bd 069b f4bc 4862 853d
00000120: 627d c93a 8463 9e3d 99ca 973d ea5f b63a
00000130: 3c14 283d 23b3 d13c d4c5 973d 4242 9f3d
00000140: 706c 94bd d38a c43c cdec 10bd 53ae e0bc
00000150: 5232 813d 1e0f 69bd b8cb cebc 448c 803d
00000160: 5d8d 8cbd e18c 05bd 29aa a6bd e679 9b3d
00000170: 7724 183d 9289 593c 6e94 92bd 2323 883d
00000180: e793 a33d ef73 a1bd 8ce3 923d 3d93 0c3d
00000190: ed20 73bc e758 9cbc 89d1 473d c132 833d
000001a0: 57f8 44bd 0ce5 ebbc 99e7 0b3d 6c29 2f3d
000001b0: 6952 bcbc 855d 35bc 0e8a 553c cd8e d5bc
000001c0: b2e7 733c 3bc8 723c 23ec a03c 2f94 913d
000001d0: 0dc9 1fbd 3736 2cbd d058 2f3d 7206 a03d
000001e0: 9af3 813d 217a e43c 6809 c23c 1e31 89bc
000001f0: e3c6 5dbd 6d2f b93b c462 7c3d d04e 84bd
00000200: de82 a33b 7b4b a43b 4c98 bebc 8958 9bbd
00000210: 4561 a4bc e7f8 ed3c 8bdd 36bd 291b fc3c
00000220: 5e40 41bc afd1 84bd 1137 dfbb 058f 7abd
00000230: 5e68 91bd 9835 8abd 89c1 b23c 9c67 2ebd
00000240: cff7 76bd 1ba1 c5bc 09c7 9abd 545c 4bbd
00000250: ec60 94bd cbe8 713d 1a4a 853d f525 8f3d
00000260: 4761 163d 2ba9 10bd b59b 173c db50 823d
00000270: d446 43bc 6caa 7abd ff2a 80bb b610 f83c
00000280: 6a54 b63d ad7b 9a3d 8864 4bbd c36a acbd
00000290: 2e54 1dbd 98b0 c13c aaeb cd3b 401e 1ebd
000002a0: 4d70 1c3c 1f65 03bd ace2 293d 5cac 963d
000002b0: 1b59 b63c e6ea 4fbc 2f76 a73d 9b3f 873d
000002c0: 72c5 0b3c 42fc c23b a361 1cbd f3e1 a43b
000002d0: 12c6 f93b dcf1 2d3d 6cd1 863d 6670 693d
000002e0: 926b 3c3d 375a 2bbd ffc3 6fbd c17c ae3d
000002f0: ab1f 05bd d5eb 513d 051c 00bd 6819 96bd
00000300: ec2d 81bd 149f 21bd 0167 133d 105b 19bc
00000310: 1d3e bfbc 1a70 f23c 042b 0bbd 0a5c 9b3d
00000320: 618a 42bd f96a 983d 69ee ad3d 8bca 843d
00000330: 6e0f 05bd 301f bf3b e277 563d a2b6 693d
00000340: a7e3 a0bd 2d46 83bd f3b1 ddbb 24f1 e1bb
00000350: eebe 35bd 2129 fb3c d9c7 b83c 5366 27bd
00000360: ffe2 183d e4fe f2bc b214 4c3d 95f2 a4bb
00000370: cb2c 9fbd 64d3 a03d 825e c9bc c9b6 e53b
00000380: 7762 e43c 9b41 2e3d af37 f93c 718f 8cbc
00000390: b5fa eebc 1b4f 173d 8d68 b7bd 1e4b b23c
000003a0: 016d 8ebc e75d 72bd 4175 eebc 1af9 92bb
000003b0: 6a07 a7bd 8682 6bbc 92d2 f4bb 0d71 323d
000003c0: 4465 693d 52d7 26bd d13b ffbc f368 283d
000003d0: dd55 0fbd 5406 593c bda3 9dbd 8f92 a7bd
000003e0: 56be 90bc 67c5 9a3b 3694 1a3c 0a0f 1dbd
000003f0: c8b9 b3bb dec8 a83d dfb5 9f3d e4d9 223d

bias_ih_l1 f4 [512]
-0.029495317 0.08116479 0.01643179 0.05536763 0.07993868 -0.034423638 0.0020528308 -0.09117085
0.06334177 -0.062540084 -0.048641298 0.0077255145 0.037065633 -0.08189947 -0.021626027 0.009302623
0.043486595 0.031330083 0.054090578 -0.020740937 0.020476153 0.022368921 0.038029265 0.056280304
-0.054753676 -0.03986318 -0.026783949 -0.02438818 0.027487306 0.037437186 0.0432885 -0.07947881
0.03887631 0.03509754 -0.035917666 0.045293853 0.07063741 -0.067121126 0.014718859 0.03372217
0.0070181075 0.0476226 0.08274459 -0.00788599 0.008032003 -0.08850464 0.08216305 0.017528186
-0.032061096 0.07272807 0.049703065 0.024143232 0.006316227 0.021995561 0.059527617 -0.03976552
0.008754413 -0.07905461 0.068964176 0.082998194 -0.008314446 -0.033873748 -0.043729372 -0.020742787
0.018585432 -0.016376184 -0.059410214 0.06658305 -0.08207345 -0.0081073055 -0.05779263 -0.010316958
0.025317224 -0.069249466 0.08727324 -0.060413893 -0.060275454 0.025262298 0.025973186 -0.048983447
-0.09152049 -0.036822695 -0.004099044 -0.07624458 0.080476955 -0.028680474 0.057578944 0.029711695
-0.035532866 -0.014939207 0.012378041 -0.08610873 -0.03607808 -0.04518736 -0.07241926 0.088119216
0.06614374 0.06985351 -0.065253705 0.056763396 0.05779406 -0.07063659 0.016223518 -0.059815448
0.03010384 0.07240018 0.049173493 0.023599857 -0.018224498 0.03933793 -0.018372787 0.036386937
-0.04920901 0.083134204 -0.049564064 0.050273523 0.015051447 0.0076561533 -0.06686747 0.07597075
0.07004738 -0.08322903 0.06204951 -0.08938795 0.071756676 0.03666989 0.035607368 0.06650378
-0.004739135 -0.03910602 0.019142358 -0.009854986 -0.08523451 0.04094709 -0.06871902 -0.0025174564
-0.05460255 -0.07413971 0.043814518 0.06511636 -0.0021768524 0.011571385 -0.0383982 -0.08035108
-0.05638323 -0.07231801 -0.061959844 -0.06193472 0.0017473842 -0.05079696 0.079803325 -0.04199568
-0.023436153 0.07960926 -0.01593414 -0.055046592 0.0016249019 -0.025494196 -0.015418815 -0.035674203
0.031176439 0.005522643 0.047172118 -0.06150962 -0.08054762 0.06875106 -0.021476582 0.006713788
0.03267921 -0.08257868 -0.08427587 0.048042744 -0.07475594 0.004259545 -0.03452065 0.07954655
0.04815056 -0.032903183 -0.063347824 -0.043052662 0.06046342 0.023537075 0.024579627 0.07162883
-0.09155304 0.026784604 -0.042963404 0.027414115 -0.016696976 -0.018973486 -0.028409952 -0.042091195
-0.028849754 0.048067465 0.06146431 -0.043731634 0.0654721 -0.025259186 -0.01635836 -0.09160451
-0.021791358 0.042598855 0.053223968 -0.014964679 -0.071085855 -0.044030953 -0.00017219142 0.015731286
0.028755335 -0.049066707 -0.021937875 -0.00849168 0.06762676 0.077846244 0.018047092 -0.009717931
0.031830367 0.01135819 -0.072118364 -0.063770585 0.05826857 0.059005577 0.044601962 0.072287135
0.055584423 -0.0101754675 0.0016621391 -0.028995454 0.0010806907 0.0020262296 0.032784853 -0.026270138
-0.039663844 -0.011215494 0.082190685 0.00454801 -0.08118569 0.06669034 0.0036293692 0.039783232
0.001034537 -0.036709674 0.037149526 0.050416972 0.0318951 0.06546776 -0.054081313 0.02968891
0.045282174 -0.001521124 -0.015038174 -0.07403522 0.017375384 0.011707315 -0.040225156 0.08288057
00000000: 2aa0 f1bc ba39 a63d f69b 863c 2bc9 623d
00000010: e4b6 a33d cdff 0cbd c988 063b c8b7 babd
00000020: 54b9 813d 0415 80bd 193c 47bd 5026 fd3b
00000030: 22d2 173d e9ba a7bd 1129 b1bc 076a 183c
00000040: 001f 323d f953 003d 158e 5d3d e6e8 a9bc
00000050: 9bbd a73c 073f b73c 93c4 1b3d 2d86 663d
00000060: 6445 60bd 9347 23bd 036a dbbc b8c9 c7bc
00000070: 0f2d e13c bc57 193d 484f 313d c9c5 a2bd
00000080: c43c 1f3d 70c2 0f3d 671e 13bd 0c86 393d
00000090: 59aa 903d cd76 89bd 5f27 713c 4220 0a3d
000000a0: 27f8 e53b ea0f 433d ff75 a93d 3d34 01bc
000000b0: aa98 033c ec41 b5bd 1a45 a83d 4597 8f3c
000000c0: 7f52 03bd 74f2 943d 7195 4b3d 07c8 c53c
000000d0: 5af8 ce3b 0930 b43c 3bd3 733d 2be1 22bd
000000e0: ab6e 0f3c 62e7 a1bd 173d 8d3d f5fa a93d
000000f0: 5039 08bc 33bf 0abd 921d 33bd c7ec a9bc
00000100: 7a40 983c 5927 86bc 2058 73bd b25c 883d
00000110: 2016 a8bd 81d4 04bc f7b7 6cbd 7508 29bc
00000120: 1166 cf3c aad2 8dbd 50bc b23d 8f74 77bd
00000130: 65e3 76bd e1f2 ce3c b8c5 d43c dea2 48bd
00000140: 186f bbbd 65d3 16bd 4651 86bb 1e26 9cbd
00000150: 1ad1 a43d 50f3 eabc e6d7 6b3d f165 f33c
00000160: e98a 11bd 93c3 74bc 44cd 4a3c c659 b0bd
00000170: 9cc6 13bd 6216 39bd 8d50 94bd d977 b43d
00000180: 5f76 873d 5b0f 8f3d bca3 85bd bc80 683d
00000190: 77b9 6c3d eba9 90bd 2fe7 843c 0b01 75bd
000001a0: 549c f63c 8c46 943d 256a 493d 7d54 c13c
000001b0: 8b4b 95bc cf20 213d 8782 96bc 780a 153d
000001c0: 638f 49bd 4442 aa3d b003 4bbd 9ceb 4d3d
000001d0: 589a 763c 78e0 fa3b d0f1 88bd 8d96 9b3d
000001e0: 0075 8f3d fb73 aabd a127 7e3d 0811 b7bd
000001f0: 2af5 923d 2b33 163d 08d9 113d 2233 883d
00000200: bf4a 9bbb a22d 20bd 6fd0 9c3c cf76 21bc
00000210: 6e8f aebd 23b8 273d 8fbc 8cbd e9fb 24bb
00000220: eca6 5fbd 8fd6 97bd da76 333d ba5b 853d
00000230: 86a9 0ebb e895 3d3c 6e47 1dbd 1b8f a4bd
00000240: 1af2 66bd 771b 94bd 9bc9 7dbd 43af 7dbd
00000250: 7c08 e53a 7910 50bd ed6f a33d aa03 2cbd
00000260: 2dfd bfbc 2e0a a33d 5088 82bc 8978 61bd
00000270: a9fa d43a 34d9 d0bc 339f 7cbc 1d1f 12bd
00000280: bb65 ff3c 4af7 b43b 8d37 413d 83f1 7bbd
00000290: 27f6 a4bd 5bcd 8c3d a8ef afbc 56ff db3b
000002a0: a3da 053d 031f a9bd d498 acbd 78c8 443d
000002b0: a419 99bd a793 8b3b 8665 0dbd 4de9 a23d
000002c0: 8639 453d 7dc5 06bd 81bc 81bd fd57 30bd
000002d0: 7ea8 773d d3d0 c03c 375b c93c 23b2 923d
000002e0: 2980 bbbd 636b db3c 65fa 2fbd 9193 e03c
000002f0: 19c8 88bc 496e 9bbc fdbb e8bc d167 2cbd
00000300: 5256 ecbc 64e2 443d 00c2 7b3d f11f 33bd
00000310: 3d16 863d 5aec cebc f801 86bc 259b bbbd
00000320: ca83 b2bc 237c 2e3d 6001 5a3d 6a2e 75bc
00000330: 7695 91bd cd59 34bd 488e 34b9 e6de 803c
00000340: 4f90 eb3c 2cfa 48bd 0fb7 b3bc b020 0bbc
00000350: e67f 8a3d da6d 9f3d 7fd7 933c f537 1fbc
00000360: 8f60 023d b417 3a3c cbb2 93bd 279a 82bd
00000370: 06ab 6e3d d5af 713d 8cb0 363d 470b 943d
00000380: 7eac 633d 01b7 26bc 22dc d93a e087 edbc
00000390: f6a5 8d3a 7eca 043b 6949 063d 7934 d7bc
000003a0: 8e76 22bd 31c1 37bc 9753 a83d 7907 953b
000003b0: af44 a6bd f294 883d b6da 6d3b bef3 223d
000003c0: 4d99 873a e25c 16bd 1a2a 183d 0782 4e3d
000003d0: 70a4 023d f613 863d 5e84 5dbd 2836 f33c
000003e0: cd79 393d 7460 c7ba ac62 76bc c79f 97bd
000003f0: d256 8e3c 0ad0 3f3c 22c3 24bd 4abd a93d
