ts_classifier_traced.pt (torch, 889516 bytes, 12 tensors)

weight_ih_l0 f4 [512, 6]
0.0061734105 -0.053243928 0.028144594 0.027734216 -0.04724088 -0.0132472385 -0.051779713 0.022934038
-0.02380864 0.062095404 0.06274439 0.009003999 -0.035225432 -0.05191524 -0.0045951614 -0.011598745
0.053658746 -0.06287791 0.08547485 -0.069332905 0.07091537 -0.010076288 0.04931255 0.03744967
0.0037197873 0.016480777 0.06715586 0.02296664 0.047724083 -0.06835043 0.062921114 0.030420218
0.022388544 0.012210274 0.04308562 0.081177495 -0.002026783 -0.049241126 -0.0035340388 -0.03138979
0.06722163 -0.025393542 -0.029662857 0.0762626 0.09954909 0.031552717 0.006629424 0.00666163
0.0418711 -0.08253389 -0.07223359 0.07060402 0.087259226 -0.0052523995 -0.06954727 0.0024150056
-0.0406267 0.0024760973 0.04897571 0.039445765 -0.010364698 0.009731026 0.024053354 -0.06927959
-0.029967135 0.0034606713 -0.038065325 -0.038601577 0.041998804 0.061721213 0.011591163 -0.022000646
0.05278009 -0.048451293 -0.015898561 0.08818017 0.02099635 0.010323161 0.054121856 -0.021553535
0.099842295 -0.047218386 0.00012793041 0.009732944 -0.031348407 -0.0218759 0.059615288 0.05249314
0.00889133 0.08218024 -0.06240913 -0.052705217 0.03992924 -0.004788971 -0.080688246 -0.061181784
-0.053806894 0.06825317 0.040028345 0.068383746 -0.0657765 -0.08617364 -0.05755914 0.009455757
-0.016781555 -0.05152333 0.07367547 -0.027650535 -0.05009693 0.04082766 -0.022166967 0.062439464
0.030516462 0.0032913857 0.018554833 -0.066415295 -0.047292035 -0.041541275 -0.050013352 0.015673077
0.027176924 -0.036724217 0.06795036 -0.037708685 0.028583355 -0.011349809 -0.07666919 -0.05755323
0.03610407 0.0349769 -0.05465481 -0.027562179 -0.063383296 0.04751189 0.09627 0.050708458
-0.031494055 0.065048486 0.07840031 -0.018082622 -0.010954042 0.028445542 0.006772896 -0.02442567
-0.08205542 -0.061977167 0.004786537 -0.004741379 0.072986655 0.0030249772 -0.022758234 -0.08636243
-0.08126546 0.03671594 0.07872639 -0.0013410843 -0.05619739 0.031380706 0.094899885 -0.035389017
-0.00025817694 0.030372031 -0.05040655 -0.08195615 0.0386938 -0.07252837 -0.022185821 -0.04693208
0.06647024 0.017065797 0.040989146 -0.059853207 0.0744844 0.007875251 -0.04866372 -0.005782024
-0.061985664 -0.0013465137 0.05410634 -0.03934154 0.06530305 0.026986916 -0.024748866 0.018464325
-0.025454018 -0.029736158 -0.0579888 0.051501572 0.05305828 0.030264232 0.052274555 0.08830265
0.083226025 -0.08529679 0.020153971 -0.0075685284 0.030010073 -0.017141659 0.023590405 -0.08132446
0.03966033 0.085083134 -0.015450386 -0.071313314 -0.07348706 -0.016955975 -0.001359904 0.009699996
0.010525595 0.0665608 -0.016035065 0.025223587 -0.046974536 0.08693309 0.033920445 -0.0122579755
0.058426294 0.031287625 0.015931351 -0.022047324 0.016558845 0.009197251 -0.05352815 0.0012647829
0.017573582 -0.05371553 0.014611967 -0.031190846 -0.073533066 -0.052934147 -0.07014598 0.020472921
0.054132387 0.08035658 0.086663745 0.034813203 0.043230116 -0.015073249 0.07306752 -0.033791885
-0.02401824 -0.029416278 -0.059250794 -0.06812 -0.018017825 0.07143501 -0.04403124 -0.08024259
-0.020194735 0.08009086 0.021318395 -0.0055869976 -0.02526648 0.07760709 -0.08493159 0.05008407
00000000: 524a ca3b 4e16 5abd 7e8f e63c de32 e33c
00000010: a77f 41bd f20a 59bc f716 54bd 2ae0 bb3c
00000020: 560a c3bc c057 7e3d 2180 803d 8285 133c
00000030: 8b48 10bd 13a5 54bd 0293 96bb aa08 3ebc
00000040: 46c9 5b3d 22c6 80bd 700d af3d 69fe 8dbd
00000050: 143c 913d 0417 25bc f5fb 493d d364 193d
00000060: adc7 733b b202 873c 0389 893d 8924 bc3c
00000070: 547a 433d 4ffb 8bbd c9dc 803d d233 f93c
00000080: 2e68 b73c 9a0d 483c 8c7a 303d 6340 a63d
00000090: c7d3 04bb 10b1 49bd 559b 67bb 9592 00bd
000000a0: 7eab 893d 1e06 d0bc 85ff f2bc 912f 9c3d
000000b0: 65e0 cb3d 6c3d 013d a43b d93b cd49 da3b
000000c0: 0881 2b3d 8707 a9bd 34ef 93bd d798 903d
000000d0: f7b4 b23d 521c acbb cd6e 8ebd 1245 1e3b
000000e0: 2f68 26bd 0546 223b c19a 483d e291 213d
000000f0: b2d0 29bc e26e 1f3c 8a0b c53c 75e2 8dbd
00000100: a37d f5bc 6ecc 623b 63ea 1bbd b01c 1ebd
00000110: f006 2c3d 62cf 7c3d dde8 3d3c b33a b4bc
00000120: f02f 583d dd74 46bd b33d 82bc ce97 b43d
00000130: 8a00 ac3c 7a22 293c e1ae 5d3d 0a91 b0bc
00000140: 1e7a cc3d 1168 41bd 0f25 0639 ed76 1f3c
00000150: 3067 00bd 1635 b3bc 292f 743d 0c03 573d
00000160: f1ac 113c 1d4e a83d b7a0 7fbd 6de1 57bd
00000170: d88c 233d cdec 9cbb e13f a5bd c099 7abd
00000180: 9e64 5cbd 51c8 8b3d c3f4 233d c70c 8c3d
00000190: d4b5 86bd ce7b b0bd 22c3 6bbd 52ec 1a3c
000001a0: 7979 89bc 210a 53bd 2ae3 963d 6083 e2bc
000001b0: 7032 4dbd e83a 273d 8097 b5bc 86c0 7f3d
000001c0: a9fd f93c 4ab4 573b 4e00 983c be04 88bd
000001d0: 4bb5 41bd 2f27 2abd cdda 4cbd d364 803c
000001e0: 24a2 de3c 226c 16bd 8f29 8b3d 6c74 1abd
000001f0: a427 ea3c 8df4 39bc bc04 9dbd f0bc 6bbd
00000200: dce1 133d f043 0f3d b9dd 5fbd 14ca e1bc
00000210: 1acf 81bd d49b 423d 3529 c53d acb3 4f3d
00000220: e9ff 00bd 2438 853d 5790 a03d 0222 94bc
00000230: 9578 33bc a006 e93c 2bef dd3b 5818 c8bc
00000240: ac0c a8bd c5db 7dbd 62d8 9c3b 925d 9bbb
00000250: 077a 953d b23e 463b 7a6f babc c9de b0bd
00000260: 816e a6bd 7463 163d 4d3b a13d 52c7 afba
00000270: 3c2f 66bd 0e89 003d df5a c23d 13f4 10bd
00000280: ec5b 87b9 c4ce f83c 1977 4ebd a0d8 a7bd
00000290: 647d 1e3d c189 94bd 0abf b5bc da3b 40bd
000002a0: 8d21 883d 92cd 8b3c 3ce4 273d a328 75bd
000002b0: 478b 983d 3207 013c 9c53 47bd 2277 bdbb
000002c0: aee4 7dbd 817d b0ba 9c9e 5d3d 9824 21bd
000002d0: 9bbd 853d aa13 dd3c 22be cabc 7f42 973c
000002e0: f284 d0bc 3e99 f3bc aa85 6dbd 50f3 523d
000002f0: a453 593d b2ec f73c d81d 563d 05d8 b43d
00000300: 6872 aa3d 15b0 aebd f119 a53c 6b01 f8bb
00000310: afd7 f53c aa6c 8cbc aa40 c13c 708d a6bd
00000320: df72 223d 1140 ae3d 9e23 7dbc b70c 92bd
00000330: 6280 96bd 42e7 8abc ce3e b2ba bbec 1e3c
00000340: 8c73 2c3c 0751 883d f85b 83bc b2a1 ce3c
00000350: 5f68 40bd fa09 b23d 2af0 0a3d add5 48bc
00000360: 6950 6f3d 7427 003d 7782 823c 979c b4bc
00000370: 6aa6 873c 11b0 163c 5540 5bbd 12c7 a53a
00000380: 79f6 8f3c d104 5cbd 0867 6f3c f283 ffbc
00000390: 8198 96bd 7ad1 58bd b2a8 8fbd d4b6 a73c
000003a0: ecb9 5d3d fe91 a43d c37c b13d 4a98 0e3d
000003b0: 1012 313d caf5 76bc 6da4 953d 5c69 0abd
000003c0: e6c1 c4bc 68fa f0bc f6b0 72bd 8082 8bbd
000003d0: 1e9a 93bc 854c 923d 1a5a 34bd 3a56 a4bd
000003e0: 6e6f a5bc ad06 a43d eaa3 ae3c 2213 b7bb
000003f0: a6fb cebc 77f0 9e3d 9df0 adbd f424 4d3d

weight_hh_l0 f4 [512, 128]
0.07867568 0.046144456 0.0075585106 0.055551395 0.057617635 0.027860057 0.023004923 0.013090903
0.052742913 -0.07045584 0.033074267 0.018505607 0.08616633 -0.04126865 -0.018427681 0.07277424
0.041142866 -0.038129203 -0.07930779 -0.04144139 0.035428844 0.08591094 0.08551011 -0.04566367
-0.05881714 0.054053888 -0.009017201 0.061500847 -0.06807576 0.030352633 -0.025658127 -0.012146423
-0.048511133 -0.08762882 -0.057547722 -0.0056576515 -0.07216158 -0.019848134 -0.026284505 0.0060395906
0.07425029 -0.008449936 0.006948837 -0.08719637 0.0136824045 -0.079498045 0.0223963 -0.06859895
-0.081681125 -0.04091602 0.06152226 0.043274343 0.07819774 -0.002786499 -0.03565827 0.019303564
-0.055562764 0.055174828 0.081475474 -0.049994923 0.08170799 -0.034883212 0.0443504 -0.030663237
-0.038474534 0.021036949 0.027471047 0.020601306 -0.015683193 0.075551294 -0.040554017 0.011480646
0.0358492 -0.08665242 0.036504872 -0.053837504 0.038417652 -0.059762813 -0.008441063 -0.072801955
0.018804673 0.080443345 0.056923196 -0.049195006 0.066163726 0.018217113 0.00034406275 -0.023693074
0.084749706 -0.06654202 0.06900547 0.06706103 0.018211443 0.02799077 -0.047018405 0.039358273
0.0035839719 -0.041297477 0.02434596 0.08309431 0.02502108 -0.061718836 0.04739231 0.029347446
-0.025031079 -0.03140755 0.045969754 0.07217348 -0.035016198 -0.05775889 0.08222336 -0.06730663
0.0023439345 -0.039026067 0.015338289 -0.055969954 0.05464053 0.06307373 -0.06389447 0.029122252
0.011928933 0.08420675 -0.067552626 -0.055869572 -0.019523803 -0.06535722 -0.030167736 -0.049286623
0.009527387 0.031985976 -0.0131351445 0.033722773 0.055895478 -0.07760085 -0.0443607 0.08593104
0.058632225 -0.083702505 0.05155365 -0.081529945 0.06289933 0.049378753 0.018174853 -0.081554316
-0.054127324 0.08688056 -0.06299395 -0.07847093 -0.07826125 -0.0022076783 0.042841643 -0.05087714
0.06301998 0.065015085 -0.04569151 -0.045617342 0.046762675 0.05560848 0.014762627 0.043888524
0.021762494 -0.059158355 -0.07744996 -0.0705805 -0.08829842 -0.05695792 -0.04944477 -0.009552607
-0.0634732 0.08056175 -0.050810136 0.027595293 -0.07778488 -0.016820524 -0.059006583 0.078039564
-0.04054525 -0.023905698 0.06930565 -0.0027911481 0.06023851 -0.04363374 -0.05514214 0.06613495
0.044641107 0.036466956 0.06396324 0.012321787 0.044416055 -0.044131264 -0.01824912 0.07783393
-0.0691431 0.0017584062 -0.06281404 0.051973492 0.085860394 0.05783248 0.023466673 -0.05651996
-0.0150765125 -0.0781303 0.020900574 0.05924961 -0.006799058 -0.008122789 0.04362817 -0.045090303
0.08040496 0.010359997 -0.031837955 0.03355681 0.025845606 -0.013273554 0.07287166 -0.087472536
0.08613808 -0.07259946 0.012722509 -0.023491178 -0.009405332 -0.007756033 0.061983764 -0.04098989
0.05520135 0.003420238 0.00937468 0.013619857 0.021757867 0.009432742 -0.0848918 -0.07185976
0.05872549 0.051574096 0.025668722 0.0061121294 -0.031107832 0.07096834 0.07713627 0.050866798
-0.04878593 0.033983305 0.0076728472 0.02865364 0.056539685 0.08205166 0.020893399 0.05183269
-0.04545163 0.05426669 0.02558652 0.08308891 0.0046702633 0.080263175 -0.006884561 0.013593385
00000000: b720 a13d f801 3d3d 62ad f73b dc89 633d
00000010: 7800 6c3d c63a e43c d274 bc3c 3a7b 563c
00000020: f408 583d 274b 90bd e278 073d 1299 973c
00000030: f977 b03d 5109 29bd a6f5 96bc a90a 953d
00000040: 6c85 283d 5e2d 1cbd 1f6c a2bd 72be 29bd
00000050: d61d 113d 13f2 af3d ed1f af3d d409 3bbd
00000060: 3eea 70bd 9c67 5d3d e2bc 13bc 50e8 7b3d
00000070: 4e6b 8bbd 16a6 f83c fe30 d2bc ca01 47bc
00000080: 9cb3 46bd bd76 b3bd 29b7 6bbd d263 b9bb
00000090: 73c9 93bd 8e98 a2bc 9a52 d7bc c2e7 c53b
000000a0: 8910 983d 9a71 0abc 12b3 e33b 0394 b2bd
000000b0: 2a2c 603c dfcf a2bd 7278 b73c 9b7d 8cbd
000000c0: 6f48 a7bd 8e97 27bd c4fe 7b3d 7040 313d
000000d0: 2326 a03d b29d 36bb 680e 12bd 8222 9e3c
000000e0: c895 63bd 00ff 613d 9ddc a63d 7ac7 4cbd
000000f0: 8556 a73d b3e1 0ebd c4a8 353d 7831 fbbc
00000100: 7997 1dbd ae55 ac3c f60a e13c 12c4 a83c
00000110: 0a7a 80bc a3ba 9a3d f81b 26bd 5219 3c3c
00000120: 9cd6 123d d376 b1bd 2286 153d b784 5cbd
00000130: d45b 1d3d dac9 74bd 624c 0abc 3119 95bd
00000140: 420c 9a3c 7bbf a43d 4c28 693d b480 49bd
00000150: d980 873d 0e3c 953c 5263 b439 fa17 c2bc
00000160: 4191 ad3d 2f47 88bd bd52 8d3d 4b57 893d
00000170: 2a30 953c e64c e53c 5f96 40bd 2436 213d
00000180: 12e1 6a3b 8b27 29bd 2e71 c73c 592d aa3d
00000190: 02f9 cc3c e4cc 7cbd 701e 423d 0e6a f03c
000001a0: fa0d cdbc 34a5 00bd c84a 3c3d b1cf 933d
000001b0: 256d 0fbd 9694 6cbd b964 a83d 0fd8 89bd
000001c0: b29c 193b ccd9 1fbd 724d 7b3c c040 65bd
000001d0: c0ce 5f3d cd2c 813d 1bdb 82bd ca91 ee3c
000001e0: 9271 433c 9774 ac3d 0859 8abd 7ed7 64bd
000001f0: 62f0 9fbc 02da 85bd 5422 f7bc c5e0 49bd
00000200: c218 1c3c ba03 033d ca34 57bc e420 0a3d
00000210: a8f2 643d 32ed 9ebd 91b3 35bd 9dfc af3d
00000220: 5828 703d 386c abbd ec29 533d 2cf9 a6bd
00000230: 5dd1 803d 6041 4a3d 6ee3 943c f305 a7bd
00000240: 9db4 5dbd 6fee b13d f902 81bd 5eb5 a0bd
00000250: 6f47 a0bd b2ae 10bb b87a 2f3d 8c64 50bd
00000260: 9f10 813d a126 853d 0527 3bbd 40d9 3abd
00000270: 388a 3f3d b8c5 633d f2de 713c 74c4 333d
00000280: 4247 b23c 0850 72bd 169e 9ebd 828c 90bd
00000290: cdd5 b4bd b54c 69bd 9986 4abd 8a82 1cbc
000002a0: 3dfe 81bd 8ffd a43d 4a1e 50bd 860f e23c
000002b0: ae4d 9fbd 32cb 89bc e3b0 71bd 35d3 9f3d
000002c0: c712 26bd e2d5 c3bc 1ff0 8d3d b2eb 36bb
000002d0: a8bc 763d 4bb9 32bd b9dc 61bd c371 873d
000002e0: 98d9 363d 605e 153d 29ff 823d 52e1 493c
000002f0: 9ced 353d fcc2 34bd 2e7f 95bc 6567 9f3d
00000300: e69a 8dbd 527a e63a a6a4 80bd 28e2 543d
00000310: 93d7 af3d c0e1 6c3d 2e3d c03c 7981 67bd
00000320: 7a03 77bc c702 a0bd ae37 ab3c b8af 723d
00000330: a2ca debb 7215 05bc 74b3 323d 9cb0 38bd
00000340: 5bab a43d fabc 293c 8468 02bd de72 093d
00000350: 2aba d33c 5279 59bc bd3d 953d cd24 b3bd
00000360: 2969 b03d 07af 94bd 1272 503c 9270 c0bc
00000370: d218 1abc 5226 febb b0e2 7d3d 04e5 27bd
00000380: d01a 623d 1226 603b 4298 193c d225 5f3c
00000390: 8e3d b23c ca8b 1a3c c1db adbd 362b 93bd
000003a0: 248a 703d 5c3f 533d 3647 d23c 4248 c83b
000003b0: dad5 febc d957 913d 9ff9 9d3d b459 503d
000003c0: c1d3 47bd 1432 0b3d 826c fb3b 0abb ea3c
000003d0: 2896 673d b30a a83d a228 ab3c 844e 543d
000003e0: 7d2b 3abd c046 5e3d d29a d13c 852a aa3d
000003f0: 0209 993b 0561 a43d e297 e1bb cab6 5e3c

bias_ih_l0 f4 [512]
0.07453314 -0.040622603 0.023146613 -0.03142124 -0.060123127 -0.05519182 0.10048675 0.07345575
-0.014866257 0.077939145 0.05498199 0.012416006 -0.043055117 -0.03530159 -0.04696387 0.015710268
-0.03622121 0.029597295 0.01376284 -0.043679006 -0.03973067 -0.008306684 0.09639344 -0.017993672
-0.0489096 -0.05133808 0.034700017 -0.057397045 -0.0030274433 -0.049531497 -0.0067733848 0.009514393
0.007522115 0.081666924 -0.010043005 -0.02495976 0.0013094018 0.019880243 0.024357453 0.032498986
-0.08758416 0.06558304 0.07417434 -0.0047294013 0.0142966155 -0.05703176 -0.0696237 0.016365085
-0.010420056 -0.042370345 -0.0722283 0.04490228 -0.0078084012 0.04408572 -0.060648154 0.05662591
-0.011121588 -0.007676046 -0.028849214 0.08763083 -0.053117868 -0.006351067 -0.030340083 0.055650067
0.057158515 -0.010435005 0.050107624 -0.079288945 0.0034056725 -0.0010228301 -0.04361227 0.055536307
-0.034375075 0.08430383 0.026594078 -0.0026445058 0.035513278 -0.07196943 -0.039566066 0.056821097
-0.075753994 0.0018759969 -0.082440935 -0.0059316335 -0.01495276 0.042607173 0.016466673 -0.059428446
0.07680944 -0.031078089 -0.07318261 0.017108481 -0.044284992 0.08284082 0.058147326 0.012460904
-0.041312292 -0.03669258 -0.032195095 -0.0445979 0.046756417 0.050203413 -0.0007551271 -0.043242514
0.059851576 -0.08177562 -0.060581606 0.02156041 0.09738118 0.08523581 0.011940384 -0.036366027
0.04192029 0.087807916 0.0811149 0.033951707 0.08299368 0.01895998 -0.0739651 0.040907007
-0.056729767 -0.03457431 0.092243046 -0.07151907 -0.014895694 -0.029886417 -0.08225911 0.008848304
-0.08804417 0.032862872 0.057355072 -0.07252971 0.06296127 -0.051026497 0.07000287 -0.047745198
0.019284688 0.03666717 0.032794833 0.027771205 0.036969304 0.027993647 -0.034850344 0.05064355
-0.0878857 -0.0035180044 0.02731243 -0.07835118 -0.059185732 0.06472432 0.02046285 0.062085047
0.07969955 -0.007972771 0.04522787 -0.06986878 -0.039362706 -0.028167188 0.016473118 8.956216e-05
0.057942666 -0.056768112 0.0042599156 -0.00086705864 0.00207006 0.03342375 0.03110322 -0.036151245
-0.046553664 0.020518687 0.0343732 0.08624317 -0.045362994 -0.053207688 -0.0053032786 0.034537114
0.0095380265 0.059697963 -0.060885068 -0.080906995 0.053336293 -0.08115798 -0.004008197 -0.065891095
-0.046817344 0.04675646 -0.05020392 0.11150168 0.022654269 -0.049000986 0.064993106 0.05100775
0.051114872 0.007969338 0.04711557 -0.082210325 -0.045063034 0.04372027 0.07341545 0.029412724
-0.0465126 -0.032356024 -0.03820531 -0.059258275 -0.051921718 0.06906515 0.08352295 0.008100959
-0.08411135 -0.022373302 -0.04543707 0.039679684 0.043899536 0.072589986 0.035388365 0.042613048
0.051764548 0.0036464077 -0.05736091 0.0022067812 -0.022838987 -0.023719985 -0.069883205 -0.026288584
-0.047508597 -0.010624366 -0.039076023 -0.08325604 -0.035067838 0.07774212 -0.05931811 0.0941482
0.038130417 0.027058069 0.07383284 0.051035903 0.022214634 0.08885257 0.049871206 0.04133436
0.043978937 0.059649948 -0.04804226 -0.08832382 -0.07014716 0.029263806 0.012354629 -0.084128596
0.07444246 0.0778672 -0.08598052 0.07570352 0.027512398 -0.04081993 0.063528754 -0.020392973
00000000: d5a4 983d e363 26bd f79d bd3c 8fb3 00bd
00000010: ab43 76bd d110 62bd ffcb cd3d f86f 963d
00000020: 9a91 73bc 8f9e 9f3d cc34 613d 816c 4b3c
00000030: 905a 30bd 6698 10bd 305d 40bd d2b2 803c
00000040: b15c 14bd 0776 f23c 897d 613c c2e8 32bd
00000050: a1bc 22bd c218 08bc ed69 c53d 7767 93bc
00000060: 6f55 48bd e147 52bd 9b21 0e3d 2a19 6bbd
00000070: 1268 46bb 8ae1 4abd 45f3 ddbb 42e2 1b3c
00000080: 137c f63b fd40 a73d 6b8b 24bc 6978 ccbc
00000090: 3ca0 ab3a e4db a23c 4889 c73c a81d 053d
000000a0: 535f b3bd 6750 863d b7e8 973d 18f9 9abb
000000b0: 5a3c 6a3c 239a 69bd df96 8ebd 1210 863c
000000c0: e2b8 2abc 878c 2dbd 6eec 93bd 74eb 373d
000000d0: 9edd ffbb 3a93 343d 336a 78bd 92f0 673d
000000e0: 5237 36bc 5787 fbbb 3055 ecbc cb77 b33d
000000f0: 1f92 59bd 9d1c d0bb c48b f8bc 53f1 633d
00000100: 0c1f 6a3d 95f7 2abc a73d 4d3d 3e62 a2bd
00000110: b431 5f3b 7c10 86ba c8a2 32bd 0a7a 633d
00000120: e1cc 0cbd 7da7 ac3d d3db d93c 724f 2dbb
00000130: 5f76 113d b564 93bd 0710 22bd 3dbd 683d
00000140: e924 9bbd 03e4 f53a cbd6 a8bd 265e c2bb
00000150: 6cfc 74bc dc84 2e3d 1ee5 863c 3e6b 73bd
00000160: 454e 9d3d 7a97 febc c4e0 95bd 1627 8c3c
00000170: 2e64 35bd 73a8 a93d e42b 6e3d d228 4c3c
00000180: 1437 29bd f54a 16bd 01df 03bd 4aac 36bd
00000190: a883 3f3d 18a2 4d3d b9f3 45ba 101f 31bd
000001a0: ed26 753d fa79 a7bd 6b24 78bd 759f b03c
000001b0: c96f c73d 1d90 ae3d 9aa1 433c 8bf4 14bd
000001c0: 9cb4 2b3d a3d4 b33d 921f a63d f210 0b3d
000001d0: 97f8 a93d f651 9b3c 047b 97bd 1b8e 273d
000001e0: 795d 68bd cb9d 0dbd ece9 bc3d 9778 92bd
000001f0: 120d 74bc 5cd4 f4bc 7777 a8bd 7af8 103c
00000200: 8050 b4bd 389b 063d 27ed 6a3d 758a 94bd
00000210: d7f1 803d 2901 51bd aa5d 8f3d 7890 43bd
00000220: ecfa 9d3c 5030 163d e053 063d 7080 e33c
00000230: 206d 173d ef52 e53c 3cbf 0ebd 9c6f 4f3d
00000240: 6bfd b3bd 528e 66bb 51be df3c 9576 a0bd
00000250: bd6c 72bd 2f8e 843d b5a1 a73c e44c 7e3d
00000260: 8539 a33d 3aa0 02bc dc40 393d 5d17 8fbd
00000270: ca3a 21bd e0be e6bc a2f2 863c 52d3 bb38
00000280: 4a55 6d3d ae85 68bd c396 8b3b 524b 63ba
00000290: d8a9 073b 58e7 083d 2ecc fe3c 5413 14bd
000002a0: 0eaf 3ebd ce16 a83c eaca 0c3d 42a0 b03d
000002b0: 8cce 39bd 4ef0 59bd 20c7 adbb ca76 0d3d
000002c0: 6245 1c3c da85 743d 9f62 79bd 91b2 a5bd
000002d0: 2877 5a3d 2836 a6bd 3257 83bb e9f1 86bd
000002e0: 8bc3 3fbd b483 3f3d a0a2 4dbd fe5a e43d
000002f0: 7295 b93c 42b5 48bd 1b1b 853d 81ed 503d
00000300: d45d 513d d491 023c 42fc 403d e35d a8bd
00000310: 0494 38bd 0714 333d d75a 963d f4f2 f03c
00000320: ff83 3ebd c087 04bd 2c7d 1cbd ceb8 72bd
00000330: deab 54bd 0872 8d3d 150e ab3d e2b9 043c
00000340: 9242 acbd 3748 b7bc 391c 3abd 2a87 223d
00000350: 00d0 333d 0faa 943d 64f3 103d 058b 2e3d
00000360: 1007 543d 92f8 6e3b 46f3 6abd a59f 103b
00000370: d418 bbbc 6a50 c2bc ed1e 8fbd 285b d7bc
00000380: 6098 42bd d211 2ebc 2e0e 20bd 2582 aabd
00000390: 4ba3 0fbd 4337 9f3d 8cf7 72bd c5d0 c03d
000003a0: a42e 1c3d e2a8 dd3c ac35 973d 060b 513d
000003b0: 77fb b53c 56f8 b53d c045 4c3d 384e 293d
000003c0: 4223 343d 8153 743d f6c7 44bd 1ee3 b4bd
000003d0: 50a9 8fbd a6ba ef3c 126b 4a3c 9d4b acbd
000003e0: 4a75 983d d778 9f3d 8e16 b0bd 720a 9b3d
000003f0: ae61 e13c cd32 27bd 5d1b 823d 2a0f a7bc

bias_hh_l0 f4 [512]
-0.047081955 0.0015014505 0.002595499 -0.08458361 -0.027346961 -0.07778894 0.019715795 0.0794186
-0.035186164 -0.044747267 0.060945645 1.7698072e-05 0.0527284 0.08694435 -0.06533158 0.03409712
-0.075880796 0.08200992 -0.035151374 -0.022007864 -0.050378423 0.041331246 0.033730913 0.040438157
0.009388024 0.071398236 0.07686328 0.0114386175 0.03841354 -0.08251587 -0.081667215 0.021775264
0.026948836 -0.023020502 -0.044352558 0.026897697 0.0034298096 0.077435344 0.033941597 -0.014925184
0.034441106 -0.06576568 0.07054142 0.06675589 0.08108079 -0.081017815 0.040400553 0.05112101
-0.020731103 0.0010800987 -0.039820306 0.009622166 0.012540576 -0.019121874 0.015959116 -0.05716366
0.045449317 0.06298133 -0.014182555 0.09777098 -0.055791747 0.07583971 -0.045043867 0.03151492
-0.03262568 -0.03714333 0.0018375951 -0.06201324 -0.073769175 -0.033571392 0.035624664 -0.08123321
-0.054584973 -0.055936363 0.0029981888 0.017085638 0.071782194 0.06392532 -0.0077673728 0.040571813
0.08019985 -0.063397676 0.008283707 0.07519956 -0.07370717 0.04394868 0.05313526 -0.013350678
0.048716962 -0.068073094 0.01581679 0.057238087 -0.06037492 -0.04281199 -0.07232574 0.06637444
0.0809729 0.07337887 0.08269416 -0.08226984 -0.07934339 -0.06072691 0.092387974 0.0026324359
-0.02437389 0.04466635 -0.008093837 -0.040527046 -0.023770487 0.00457315 0.087648906 0.039403174
0.027232742 -0.047680464 -0.014494005 -0.07752928 0.054672197 0.014009336 0.073894285 -0.076837376
0.045862675 -0.043595873 -0.015931427 -0.057793986 -0.08687988 0.016424756 0.038911402 0.04188171
-0.046791434 -0.047028087 0.068010785 -0.05033638 0.03883691 -0.054541618 0.048704658 0.023922155
-0.023717083 -0.065358564 0.017196085 -0.010643332 0.036125142 0.06928811 -0.014732022 -0.029641587
0.08426855 -0.027677426 -0.05863882 0.0822893 -0.0042373464 0.0674359 0.056875244 0.047440335
-0.064503424 0.08499964 0.06580358 -0.011457311 -0.012566762 0.024529774 -0.009556906 -0.06848213
0.0674813 0.07878383 -0.04401406 -0.056097683 0.0669644 -0.019114498 0.008699546 0.06015069
0.05842568 -0.086627714 -0.037199046 0.03393791 -0.014301883 0.06063975 0.018504547 -0.066132985
0.046776265 -0.06499273 -0.0152118895 0.007260629 -0.054054935 -0.08824014 -0.0046961093 -0.0352115
0.061566893 0.02497209 0.035717867 0.022334889 0.03274636 -0.05802393 -0.06287312 -0.031118723
-0.08559678 -0.012763552 0.008123173 0.023574755 -0.051341724 -0.0510591 -0.07560421 8.3358325e-05
0.050830208 0.028490279 -0.034272145 -0.035486557 0.019320758 -0.028821925 0.02534305 0.031422943
-0.045187876 -0.05829991 -0.07536515 0.011726344 -0.087619685 0.081207596 -0.030939225 -0.03755473
-0.027796637 -0.015882824 -0.026134903 0.0332956 -0.037074804 -0.08010585 -0.015080268 0.06227976
-0.031488515 0.06284913 0.03482016 -0.015608578 0.004370951 -0.07476333 0.06966881 0.021679502
0.058555946 -0.061998017 -0.06278178 -0.0035999182 0.044777144 0.0406686 0.048717156 -0.08818686
0.08384519 -0.039762635 -0.045575783 0.06652293 0.0050362544 0.07000639 0.019535486 -0.07143173
0.035182398 0.018444654 0.041089457 -0.06012431 0.056428023 -0.06465713 0.07698583 -0.07378945
00000000: 02d9 40bd 52cc c43a 3f19 2a3b 2c3a adbd
00000010: bc06 e0bc cf4f 9fbd 0583 a13c 38a6 a23d
00000020: 5e1f 10bd e948 37bd 24a2 793d 5276 9437
00000030: bcf9 573d e10f b23d 90cc 85bd 6ca9 0b3d
00000040: 6467 9bbd d1f4 a73d e3fa 0fbd d649 b4bc
00000050: 9b59 4ebd f44a 293d 6d29 0a3d 7ba2 253d
00000060: 3ad0 193c 3d39 923d 7f6a 9d3d 0a69 3b3c
00000070: 8457 1d3d 15fe a8bd 2441 a7bd 0a62 b23c
00000080: cec3 dc3c 7e95 bcbc 07ab 35bd 8f58 dc3c
00000090: a8c6 603b 6c96 9e3d 5806 0b3d c288 74bc
000000a0: 1e12 0d3d 28b0 86bd 0578 903d 50b7 883d
000000b0: af0d a63d abec a5bd 0d7b 253d 4464 513d
000000c0: 46d4 a9bc 1992 8d3a 9e1a 23bd 4aa6 1d3c
000000d0: fd76 4d3c 7aa5 9cbc b1bc 823c 7124 6abd
000000e0: 1029 3a3d 5bfc 803d f25d 68bc 273c c83d
000000f0: e385 64bd da51 9b3d eb7f 38bd ca15 013d
00000100: 81a2 05bd 9b23 18bd 76db f03a 9801 7ebd
00000110: 4b14 97bd 2882 09bd 2beb 113d 995d a6bd
00000120: 7e94 5fbd 871d 65bd 437d 443b 2ef7 8b3c
00000130: 8b02 933d 47eb 823d 7285 febb a12e 263d
00000140: d23f a43d a4d6 81bd 63b8 073c 3a02 9a3d
00000150: c9f3 96bd 8803 343d 5ca4 593d cdbc 5abc
00000160: 708b 473d e869 8bbd 3692 813c 7c72 6a3d
00000170: b14b 77bd a05b 2fbd 841f 94bd 53ef 873d
00000180: 1fd5 a53d a947 963d 8e5b a93d 177d a8bd
00000190: ca7e a2bd c8bc 78bd e835 bd3d f284 2c3b
000001a0: c1ab c7bc 10f4 363d 039c 04bc b0ff 25bd
000001b0: 53ba c2bc 5dda 953b 4581 b33d 3965 213d
000001c0: 3317 df3c 974c 43bd 4378 6dbc acc7 9ebd
000001d0: f4ef 5f3d 6a87 653c e355 973d ea5c 9dbd
000001e0: 80da 3b3d 9691 32bd a082 82bc 63b9 6cbd
000001f0: 14ee b1bd 368d 863c 9061 1f3d 288c 2b3d
00000200: 60a8 3fbd 86a0 40bd 3d49 8b3d 852d 4ebd
00000210: 7413 1f3d 0867 5fbd 897e 473d 65f8 c33c
00000220: 544a c2bc b6da 85bd cede 8c3c 5f61 2ebc
00000230: f5f7 133d ede6 8d3d 945e 71bc ead2 f2bc
00000240: fd94 ac3d c5bb e2bc 422f 70bd 4b87 a83d
00000250: 70d9 8abb d51b 8a3d 04f6 683d cc50 423d
00000260: 5f1a 84bd 4b14 ae3d 07c4 863d 72b7 3bbc
00000270: d2e4 4dbc aaf2 c83c 9294 1cbc 5c40 8cbd
00000280: a333 8a3d 6b59 a13d 1648 34bd afc6 65bd
00000290: a224 893d 0296 9cbc 8a88 0e3c 9260 763d
000002a0: c44f 6f3d df69 b1bd 075e 18bd 7a02 0b3d
000002b0: 7252 6abc 6361 783d d996 973c bb70 87bd
000002c0: 7898 3f3d e91a 85bd 4a3b 79bc 92ea ed3b
000002d0: b568 5dbd 3fb7 b4bd d2e1 99bb ef39 10bd
000002e0: 912d 7c3d 4592 cc3c e64c 123d a8f7 b63c
000002f0: 0c21 063d 80aa 6dbd 9fc3 80bd b1ec febc
00000300: 5d4d afbd 381e 51bc 0f17 053c d81f c13c
00000310: b34b 52bd 5923 51bd 61d6 9abd a9d0 ae38
00000320: 5633 503d 7264 e93c f360 0cbd 5a5a 11bd
00000330: 9146 9e3c f51b ecbc 3a9c cf3c 58b5 003d
00000340: ec16 39bd e3cb 6ebd 0b59 9abd da1f 403c
00000350: f371 b3bd 2b50 a63d 4274 fdbc fdd2 19bd
00000360: c6b5 e3bc b21c 82bc dd18 d6bc f860 083d
00000370: c0db 17bd 890e a4bd 3a13 77bc 1019 7f3d
00000380: 1afa 00bd 0bb7 803d 969f 0e3d 1fbb 7fbc
00000390: 323a 8f3b 841d 99bd 85ae 8e3d 3699 b13c
000003a0: 5cd8 6f3d a2f1 7dbd bc93 80bd 9bec 6bbb
000003b0: 3d68 373d 1e94 263d a48b 473d 509b b4bd
000003c0: 07b7 ab3d 25de 22bd acad 3abd 2d3d 883d
000003d0: 2a07 a53b 835f 8f3d e208 a03c cd4a 92bd
000003e0: 6b1b 103d 3e19 973c 6b4d 283d e944 76bd
000003f0: 1221 673d f56a 84bd bfaa 9d3d ec1e 97bd

weight_ih_l1 f4 [512, 128]
-0.055254374 0.054890517 0.07504567 -0.06572114 0.019241594 0.08703483 -0.06342867 -0.01865749
0.044978168 -0.055804703 -0.024001632 0.040628534 -0.045225225 0.08555796 0.07248417 -0.0470385
-0.07103672 -0.0505944 -0.02487759 0.057702437 -0.09129968 -0.05524407 -0.061963458 -0.07603408
0.080991894 0.044596575 0.063185655 -0.042527787 -0.05191728 0.09011283 -0.038918976 0.07863868
-0.08773799 -0.007076802 -0.008869834 -0.069521144 0.040998664 -0.04823165 -0.013564175 -0.07526644
-0.028421689 -0.038845286 0.048522517 0.011286672 0.0154178515 0.05935147 -0.055069122 0.044831306
-0.084013306 -0.033575553 0.06315093 0.086006194 -0.0016953911 0.047475133 -0.047363307 -0.05973886
0.021405045 0.031857733 -0.0018781072 0.034555733 0.0131121855 0.05106555 -0.040394884 0.024965052
0.09109228 -0.021966381 -0.03976562 0.033607736 -0.078611724 -0.04135078 0.03545275 0.049106605
-0.06906667 0.072163545 -0.025607813 -0.021313503 -0.060244296 -0.043977644 -0.026098322 0.083158754
-0.066987015 0.045230176 0.032481518 -0.04756683 0.032186307 0.016051464 -0.04271474 -0.003408047
-0.008138177 -0.015325139 -0.023458261 -0.0022492195 -0.0070031113 -0.01316257 -0.0366031 0.08667826
0.08718876 0.08332331 0.06792813 -0.041284997 0.024506193 -0.054500133 0.057706095 0.07396863
0.05468082 0.05111639 0.06599613 -0.026451692 0.033801276 -0.078754306 0.05673338 0.079140484
0.02729315 0.034494895 0.035189025 0.030293802 -0.029726185 0.058093313 -0.008499721 -0.07157142
-0.037449572 0.014837159 -0.037209947 0.07174806 -0.03065343 -0.054510977 -0.028710833 -0.023973506
-0.021389905 -0.03730465 -0.082827926 0.036259137 -0.07434199 -0.048255164 0.08158707 -0.03290568
-0.0015732135 -0.06727454 0.0690689 0.04529097 -0.048485257 0.042108666 0.00848884 -0.040225413
-0.052972954 -0.06440499 0.057096895 0.064520456 0.028751139 0.061901152 0.0056243916 -0.0684267
-0.06167444 -0.012111694 -0.103018746 0.00089052797 -0.06215448 -0.07304675 0.044402134 -0.07249333
0.06602836 0.051994555 -0.03956186 -0.049134288 -0.006370269 -0.05900622 -0.02295832 -0.07256946
-0.08085841 0.073011816 0.03489483 -0.07373447 0.0669493 -0.066523716 0.015399852 -0.035948243
-0.0069047967 0.019784935 0.09463244 -0.023417484 -0.060698546 0.061756752 0.0004643806 0.05959941
-0.0050300504 -0.011889716 -0.024706077 -0.08215623 -0.055309188 -0.074097395 -0.053310536 -0.048168655
-0.02199486 -0.016212165 -0.099835254 0.011553087 0.045091156 0.013191925 -0.0054535395 -0.03630303
-0.050353434 0.014704587 0.04725015 0.045536987 0.0065885335 0.06398632 -0.08396442 0.008171714
0.0028438433 -0.070110746 -0.03778487 0.07189668 -0.017117476 -0.010770917 0.04203388 -0.06718175
-0.038415074 0.060156435 -0.022131506 -0.051271394 0.013074887 0.04130914 -0.08120579 -0.06705165
0.026216183 -0.078489155 0.03714461 -0.062423605 -0.10106441 -0.07514024 -0.0662196 -0.03854756
-0.0017699881 0.08728813 0.06490853 0.05091022 -0.06042771 0.083563104 0.063597485 0.057246026
-0.020101855 0.048006304 0.07342685 0.002947345 -0.02427896 0.0081383195 -0.03944899 0.030372666
-0.007953329 0.07791866 0.022067068 0.04106589 0.060212564 -0.024083413 -0.022351462 -0.07261427
00000000: 6952 62bd e1d4 603d 8bb1 993d ce98 86bd
00000010: 8ca0 9d3c 513f b23d e4e6 81bd 98d7 98bc
00000020: 073b 383d 7993 64bd 129f c4bc 1b6a 263d
00000030: 163e 39bd 0339 af3d 9572 943d 71ab 40bd
00000040: b37b 91bd 133c 4fbd 16cc cbbc 6459 6c3d
00000050: 54fb babd 9b47 62bd 65cd 7dbd c1b7 9bbd
00000060: 14df a53d e6aa 363d 7b67 813d 9e31 2ebd
00000070: 37a7 54bd 138d b83d 8169 1fbd 510d a13d
00000080: faaf b3bd 85e4 e7bb c852 11bc 1a61 8ebd
00000090: 37ee 273d 8d8e 45bd 463c 5ebc 4b25 9abd
000000a0: 9ad4 e8bc 3c1c 1fbd 8cbf 463d bceb 383c
000000b0: 289b 7c3c 871a 733d 2990 61bd 08a1 373d
000000c0: 2b0f acbd 8586 09bd 4655 813d 0424 b03d
000000d0: e337 deba 4975 423d 0700 42bd bcb0 74bd
000000e0: a259 af3c 417d 023d d22a f6ba 508a 0d3d
000000f0: 7ed4 563c 1c2a 513d 1b75 25bd 8283 cc3c
00000100: 978e ba3d d7f2 b3bc 46e1 22bd 44a8 093d
00000110: 2fff a0bd 6f5f 29bd e736 113d 0224 493d
00000120: d472 8dbd 7bca 933d 7ac7 d1bc a899 aebc
00000130: b9c2 76bd e721 34bd 26cc d5bc 234f aa3d
00000140: 7d30 89bd 4743 393d 570b 053d 70d5 42bd
00000150: cad5 033d 5c7e 833c a7f5 2ebd 8a59 5fbb
00000160: fd55 05bc 4b16 7bbc 8a2b c0bc a467 13bb
00000170: 5b7a e5bb d2a7 57bc 22ed 15bd 5f84 b13d
00000180: 0590 b23d 69a5 aa3d e71d 8b3d 751a 29bd
00000190: 36c1 c83c 883b 5fbd 3a5d 6c3d dd7c 973d
000001a0: fff8 5f3d 6b5f 513d fb28 873d 38b1 d8bc
000001b0: 3573 0a3d f049 a1bd 4361 683d 6814 a23d
000001c0: e295 df3c 854a 0d3d 5e22 103d b52a f83c
000001d0: 5484 f3bc 41f3 6d3d 6a42 0bbc 0994 92bd
000001e0: b964 19bd 8e17 733c 7569 18bd a6f0 923d
000001f0: e71c fbbc e746 5fbd fb32 ebbc 1664 c4bc
00000200: e239 afbc c3cc 18bd b0a1 a9bd 7684 143d
00000210: 9d40 98bd 35a7 45bd 1f17 a73d 1bc8 06bd
00000220: 4934 ceba 3cc7 89bd ff73 8d3d 0683 393d
00000230: 7a98 46bd 237a 2c3d c714 0b3c 67c3 24bd
00000240: 2bfa 58bd c3e6 83bd 6fde 693d 4d23 843d
00000250: 8287 eb3c 108c 7d3d d14c b83b 4c23 8cbd
00000260: 569e 7cbd 2070 46bc 7efb d2bd 5272 693a
00000270: b295 7ebd 8999 95bd 03df 353d 6277 94bd
00000280: e039 873d 3ef8 543d 9e0b 22bd 0941 49bd
00000290: b1bd d0bb 82b0 71bd 1613 bcbc 4c9f 94bd
000002a0: 1899 a5bd 3887 953d e2ed 0e3d 1902 97bd
000002b0: b71c 893d 963d 88bd a94f 7c3c 773e 13bd
000002c0: a241 e2bb 0414 a23c a7ce c13d 06d6 bfbc
000002d0: 0a9f 78bd a6f4 7c3d 1c78 f339 831e 743d
000002e0: 1fd3 a4bb 15cd 42bc 6664 cabc 8741 a8bd
000002f0: e38b 62bd 60c0 97bd 265c 5abd 7f4c 45bd
00000300: 912e b4bc 60cf 84bc 6d76 ccbd 2949 3d3c
00000310: 81b1 383d f222 583c 9bb3 b2bb 7cb2 14bd
00000320: 673f 4ebd 82eb 703c 6089 413d fe84 3a3d
00000330: a0e4 d73b 420b 833d 8af5 abbd a7e2 053c
00000340: c65f 3a3b 3996 8fbd 4fc4 1abd 913e 933d
00000350: f339 8cbc 8078 30bc b82b 2c3d 9696 89bd
00000360: 2059 1dbd 9866 763d 224d b5bc f401 52bd
00000370: 0d38 563c c633 293d 394f a6bd 6052 89bd
00000380: 52c3 d63c ecbe a0bd f224 183d e5af 7fbd
00000390: dbfa cebd 20e3 99bd 249e 87bd 0ce4 1dbd
000003a0: f2fe e7ba 1ec4 b23d c3ee 843d 3c87 503d
000003b0: 0c83 77bd 2223 ab3d 663f 823d cf7a 6a3d
000003c0: a5ac a4bc 42a2 443d d160 963d 3e28 413b
000003d0: abe4 c6bc 9656 053c 4495 21bd 19d0 f83c
000003e0: ae4e 02bc d293 9f3d ffc5 b43c b534 283d
000003f0: 73a1 763d 944a c5bc 6a1a b7bc cab6 94bd

weight_hh_l1 f4 [512, 128]
-0.05919567 -0.001880896 0.028254736 0.013926291 0.050431542 0.06017137 0.056343205 -0.011217654
0.056160517 -0.08548495 -0.014051813 -0.019687982 0.07548169 -0.0319471 0.0594448 -0.06932289
0.045624252 0.051818002 -0.03665306 -0.030694582 0.03844561 0.07271678 -0.008410007 0.09302053
-0.06890745 0.065532364 0.02301404 -0.019699724 0.0022444373 -0.03398265 -0.0017902369 -0.07157395
0.03754995 0.01891694 0.09251212 0.04656658 0.02110205 0.037883893 0.017499872 -0.080964334
0.08426396 0.0049491315 -0.01784151 -0.096267976 0.08870057 -0.065763384 -0.019266965 0.052117366
-0.07678368 -0.05584017 0.045628883 -0.07640688 0.014462896 -0.071603104 -0.0048021926 0.04403396
-0.08077091 -0.09560169 -0.050685473 -0.033179056 -0.019515602 0.0029682894 -0.07148263 -0.06860792
-0.063154645 -0.07058029 -0.018631378 -0.011871447 -0.026230909 -0.080774724 -0.018149607 0.05961405
0.012032607 0.07962406 0.070460424 -0.0027648043 0.04297506 0.025162805 0.08250121 0.083141
-0.082957536 0.029183917 -0.049428463 -0.022902375 0.07247516 -0.045307424 -0.031637885 0.05767805
-0.057276744 -0.042780727 -0.07601948 0.07871577 0.025171006 0.008134067 -0.06588799 0.057351965
0.08619169 -0.07260825 0.07711104 0.04368047 -0.007801177 -0.0068365005 0.0559978 0.06406423
-0.037185144 -0.036386702 0.027109155 0.0323379 -0.037559215 -0.0010733058 0.0246964 -0.019335799
0.0227708 0.0084613 0.013395139 0.08181629 -0.029558986 -0.054714676 0.04079622 0.06730795
0.072243884 0.034079283 0.022107823 -0.024402944 -0.06195061 0.016117664 0.0660343 -0.058420762
0.021319218 -0.0025661194 -0.02378955 -0.084167875 -0.029835893 0.025927335 -0.04191471 0.031119779
-0.020272994 -0.06919592 0.005300668 -0.06795285 -0.080108725 -0.07868988 0.024265613 -0.050494585
-0.07530858 -0.016029425 -0.08505243 -0.0508339 -0.06691371 0.045441303 0.057737887 0.07922256
0.03503132 -0.04144634 0.019156635 0.05539633 -0.020680672 -0.06775658 -0.0092122825 0.040089976
0.0737908 0.085865185 -0.04945123 -0.074938476 -0.030314693 0.016081171 0.021953184 -0.05004363
0.020724788 -0.038776383 0.054195628 0.064613506 0.0302679 -0.0130012175 0.08924338 0.064224206
0.002366574 0.011304769 -0.042094357 -0.006609797 -0.0024374956 0.034041893 0.08167364 0.04592913
0.037397407 -0.052776072 -0.04768213 0.08899639 -0.040137734 0.060750723 -0.022986855 -0.05928873
-0.05467119 -0.04566984 0.041070312 -0.023804687 -0.03143258 0.034395833 -0.023736851 0.065297075
-0.035619196 0.083692975 0.0837358 0.06198963 -0.026460418 0.0114255 0.0604453 0.06493398
-0.08222446 -0.057769947 -0.017352022 0.0074359667 -0.030910902 0.031640325 0.0046067005 -0.047909465
0.04723138 -0.040784836 0.055156298 -0.0037930063 -0.079009905 0.07262884 -0.015163683 -0.0051105144
0.02938013 0.0562492 0.03850573 -0.016756233 -0.02656469 0.045319878 -0.07768679 0.021413652
-0.005911019 -0.06768245 -0.03714886 -0.0142529 -0.095866896 -0.008579057 0.0010239676 0.050693035
0.07208768 -0.044042375 -0.03064497 0.051319674 -0.023335893 0.002703699 -0.07639489 -0.09388332
-0.0058175186 0.013290873 0.014252282 -0.045922082 -0.020357978 0.092800505 0.084125385 0.049041905
00000000: 2977 72bd 6688 f6ba 7a76 e73c 192b 643c
00000010: 4e91 4e3d 4176 763d 22c8 663d 40ca 37bc
00000020: 9208 663d bc12 afbd 9339 66bc b148 a1bc
00000030: 2596 9a3d f6da 02bd 647c 733d 29f9 8dbd
00000040: 7fe0 3a3d 1d3f 543d 8521 16bd 3473 fbbc
00000050: 2579 1d3d 89ec 943d 20ca 09bc 8c81 be3d
00000060: 591f 8dbd d535 863d f187 bc3c 5161 a1bc
00000070: 6917 133b 6431 0bbd 62a6 eaba 5d95 92bd
00000080: facd 193d b3f7 9a3c ff76 bd3d 99bc 3e3d
00000090: 35de ac3c 242c 1b3d e45b 8f3c a1d0 a5bd
000000a0: 9592 ac3d 532c a23b 5c28 92bc 2528 c5bd
000000b0: a5a8 b53d f4ae 86bd c1d5 9dbc 0579 553d
000000c0: c340 9dbd a9b8 64bd 5ae5 3a3d 367b 9cbd
000000d0: c8f5 6c3c a6a4 92bd b65b 9dbb f45c 343d
000000e0: 386b a5bd d2ca c3bd 929b 4fbd c3e6 07bd
000000f0: 2fdf 9fbc a287 423b 7c65 92bd 4f82 8cbd
00000100: 3957 81bd 668c 90bd d5a0 98bc 7580 42bc
00000110: 34e2 d6bc 386d a5bd 7cae 94bc dd2d 743d
00000120: 6924 453c f011 a33d 8e4d 903d b831 35bb
00000130: 9e06 303d 3a22 ce3c 65f6 a83d d445 aa3d
00000140: a4e5 a9bd 1c13 ef3c 8075 4abd c39d bbbc
00000150: db6d 943d 4794 39bd ba96 01bd d23f 6c3d
00000160: 059b 6abd d83a 2fbd 1ab0 9bbd bc35 a13d
00000170: 6d33 ce3c c044 053c 48f0 86bd e5e9 6a3d
00000180: 4585 b03d a2b3 94bd 65ec 9d3d 4bea 323d
00000190: 04a1 ffbb b904 e0bb f35d 653d 1b34 833d
000001a0: 734f 18bd 390a 15bd 0514 de3c bf74 043d
000001b0: b1d7 19bd 2bae 8cba 1b50 ca3c 1c66 9ebc
000001c0: d489 ba3c 44a1 0a3c 4977 5b3c 4d8f a73d
000001d0: b025 f2bc 7f1c 60bd f019 273d c0d8 893d
000001e0: 9af4 933d b896 0b3d 771b b53c afe8 c7bc
000001f0: ecbf 7dbd 3109 843c fe3c 873d 9c4a 6fbd
00000200: a4a5 ae3c 572c 28bb 4de2 c2bc 3560 acbd
00000210: 676a f4bc 9065 d43c c2ae 2bbd e8ee fe3c
00000220: 8d13 a6bc 97b6 8dbd 3ab1 ad3b dd2a 8bbd
00000230: 0b10 a4bd 2928 a1bd aec8 c63c 69d3 4ebd
00000240: 633b 9abd 2450 83bc f82f aebd 3537 50bd
00000250: 0e0a 89bd a920 3a3d 907e 6c3d 703f a23d
00000260: 007d 0f3d a3c3 29bd 60ee 9c3c 43e7 623d
00000270: 836a a9bc f6c3 8abd 1def 16bc 6335 243d
00000280: a21f 973d 16da af3d 5f8d 4abd 5879 99bd
00000290: 8556 f8bc a9bc 833c 2ad7 b33c 8dfa 4cbd
000002a0: 08c7 a93c fcd3 1ebd 3cfc 5d3d 1654 843d
000002b0: 63f4 f73c 0f03 55bc 3cc5 b63d fb87 833d
000002c0: 8618 1b3b a337 393c 226b 2cbd ff96 d8bb
000002d0: 64be 1fbb 836f 0b3d 8244 a73d 2f20 3c3d
000002e0: 062e 193d b92b 58bd 564e 43bd bd43 b63d
000002f0: 7767 24bd c0d5 783d ee4e bcbc bdd8 72bd
00000300: e6ee 5fbd 4c10 3bbd 5839 283d 0c02 c3bc
00000310: 73bf 00bd a5e2 0c3d c973 c2bc 79ba 853d
00000320: 6fe5 11bd 3967 ab3d ad7d ab3d d7e8 7d3d
00000330: 85c3 d8bc 0532 3b3c 7e95 773d 1bfc 843d
00000340: 4c65 a8bd 2ea0 6cbd d425 8ebc 69a9 f33b
00000350: dc38 fdbc 4999 013d cef3 963b b73c 44bd
00000360: b175 413d 000e 27bd 92eb 613d 1694 78bb
00000370: f2cf a1bd 6ebe 943d 1971 78bc 1a76 a7bb
00000380: 99ae f03c 9065 663d 2fb8 1d3d 5e44 89bc
00000390: 319e d9bc 56a1 393d 401a 9fbd af6b af3c
000003a0: 39b1 c1bb 199d 8abd 6729 18bd ff84 69bc
000003b0: dd55 c4bd 2c8f 0cbc a736 863a 80a3 4f3d
000003c0: b5a2 933d c765 34bd 290b fbbc 9434 523d
000003d0: ea2a bfbc 8b30 313b ed74 9cbd e645 c0bd
000003e0: e2a0 bebb f6c1 593c 6782 693c cb18 3cbd
000003f0: c6c5 a6bc 310e be3d ee49 ac3d 2ae0 483d

bias_ih_l1 f4 [512]
-0.021024017 0.09287629 0.040427167 0.06804549 0.096331194 -0.020693678 0.020109976 -0.07344666
0.071919285 -0.047889717 -0.04620421 0.0109312255 0.044440318 -0.06800806 -0.023036435 0.016857374
0.062345266 0.04265686 0.05949975 -0.02047399 0.029880302 0.02639382 0.055101503 0.06829771
-0.03668638 -0.0329334 -0.014194917 -0.026170712 0.029998604 0.04413222 0.055492055 -0.071877986
0.024691753 0.048254963 -0.01951037 0.057789177 0.08568675 -0.05549932 0.02358217 0.04154175
0.0150289675 0.059770387 0.09900635 0.0021180736 0.019708408 -0.067872606 0.09257539 0.017506137
-0.020527013 0.09127375 0.06638749 0.045955274 0.013555855 0.037294712 0.068941206 -0.033799414
0.01543534 -0.06429041 0.081815146 0.09281603 0.0011276421 -0.0061587216 -0.031597376 -0.0062996065
0.028430587 -0.0010198957 -0.04352595 0.072176106 -0.06925597 0.009210712 -0.05060964 0.0023340024
0.036889203 -0.058272988 0.10233081 -0.04173933 -0.05463899 0.034059696 0.042038303 -0.034540337
-0.07925745 -0.02949181 0.009880029 -0.078677006 0.09692755 -0.024977297 0.047563594 0.04520547
-0.027144618 -0.0005060859 0.031624746 -0.06571097 -0.023530181 -0.034047257 -0.06353969 0.09543719
0.05894565 0.08106973 -0.050351337 0.059079997 0.068849325 -0.06533863 0.026555592 -0.038142934
0.041157648 0.07600434 0.059939846 0.031924862 -0.01775021 0.04503618 -0.008985834 0.04569732
-0.059618533 0.091855906 -0.041283473 0.06598709 0.023900034 0.016069459 -0.04289283 0.084148
0.07415702 -0.06938002 0.0799604 -0.091480374 0.075960495 0.052407935 0.04425461 0.079811275
0.00935505 -0.028313175 0.044190593 0.0030702543 -0.06833125 0.05499498 -0.054034565 0.015107618
-0.047091264 -0.056624122 0.05281179 0.06783926 0.0066131875 0.023369392 -0.038012713 -0.07323271
-0.03738565 -0.061228774 -0.054717414 -0.060338367 0.011096056 -0.04212477 0.09704544 -0.029272867
-0.004769052 0.08798106 -0.0042020325 -0.055207334 0.0053256983 -0.01804644 -0.0024370227 -0.027995916
0.02012133 0.017107042 0.064619295 -0.050312303 -0.065152906 0.077525094 -0.016371747 0.015418735
0.041823678 -0.06940943 -0.07064035 0.052062716 -0.06215214 0.023156757 -0.024478424 0.07912384
0.061053094 -0.016378226 -0.046239253 -0.024321593 0.06980197 0.04040063 0.035147645 0.079788566
-0.082231574 0.041940536 -0.029856151 0.039916925 -0.0067999614 0.006753517 -0.01640471 -0.030243192
-0.018906457 0.062502876 0.07362854 -0.040642396 0.07681645 -0.005353 -0.006770778 -0.07973868
-0.010283447 0.0538423 0.066131435 0.0053310967 -0.06699025 -0.03779909 0.01638811 0.030073078
0.040528852 -0.04345575 -0.007528782 -0.011747198 0.08352488 0.08431314 0.006373388 0.007821184
0.04153031 0.026451413 -0.053211357 -0.04230764 0.07086912 0.069799624 0.051794 0.079804264
0.050243225 0.00161166 0.01717635 -0.027423713 0.01208967 0.011150369 0.041704997 -0.004855305
-0.02917387 -0.009645692 0.09327056 0.013706977 -0.07836297 0.07397205 0.012944053 0.047245353
-0.009204113 -0.033742044 0.046632428 0.06564824 0.03927102 0.076850295 -0.029705988 0.038035043
0.0508812 0.008492768 0.0013095771 -0.075239 0.020399677 0.027324943 -0.028137933 0.094366096
00000000: 8f3a acbc ed35 be3d f596 253d 6f5b 8b3d
00000010: 4a49 c53d ca85 a9bc adbd a43c 346b 96bd
00000020: 6b4a 933d 0228 44bd a040 3dbd e218 333c
00000030: 0d07 363d cf47 8bbd e8b6 bcbc 7a18 8a3c
00000040: c05d 7f3d f6b8 2e3d 03b6 733d 12b9 a7bc
00000050: 89c7 f43c da37 d83c 1db2 613d abdf 8b3d
00000060: 7544 16bd 2ce5 06bd cc91 68bc f663 d6bc
00000070: a2bf f53c fdc3 343d a34b 633d c434 93bd
00000080: 5c46 ca3c ffa6 453d 36d4 9fbc 58b4 6c3d
00000090: 897c af3d 4153 63bd 652f c13c af27 2a3d
000000a0: 0f3c 763c cbd1 743d d7c3 ca3d 61cf 0a3b
000000b0: 8773 a13c cb00 8bbd 2b98 bd3d 0869 8f3c
000000c0: 4428 a8bc bbed ba3d 2af6 873d 993b 3c3d
000000d0: 6019 5e3c 57c2 183d 0c31 8d3d 4171 0abd
000000e0: 82e4 7c3c b1aa 83bd b38e a73d 5516 be3d
000000f0: 64cd 933a 1acf c9bb 406c 01bd ee6c cebb
00000100: 43e7 e83c 05ae 85ba 4448 32bd 11d1 933d
00000110: 13d6 8dbd 87e8 163c 0e4c 4fbd 10f6 183b
00000120: 2219 173d a8af 6ebd d192 d13d dcf6 2abd
00000130: 22cd 5fbd 2e82 0b3d 5b30 2c3d 2b7a 0dbd
00000140: bb51 a2bd cf98 f1bc d8df 213c 6921 a1bd
00000150: f481 c63d 309d ccbc 0bd2 423d 5f29 393d
00000160: 645e debc daaa 04ba f388 013d 7993 86bd
00000170: 5ec2 c0bc 2375 0bbd 1921 82bd 9374 c33d
00000180: fe70 713d e307 a63d 343d 4ebd defd 713d
00000190: e000 8d3d 42d0 85bd 1d8b d93c c43b 1cbd
000001a0: ec94 283d 2aa8 9b3d 7c83 753d a5c3 023d
000001b0: e368 91bc dc77 383d 5239 13bc 1d2d 3b3d
000001c0: 9032 74bd f31e bc3d dc18 29bd 3d24 873d
000001d0: 01ca c33c 19a4 833c 64b0 2fbd c955 ac3d
000001e0: a3df 973d 1d17 8ebd 47c2 a33d 105a bbbd
000001f0: 2d91 9b3d b4a9 563d 5244 353d 1874 a33d
00000200: ec45 193c 08f1 e7bc 3201 353d 5236 493b
00000210: 41f1 8bbd 6b42 613d 5953 5dbd f185 773c
00000220: c5e2 40bd b2ee 67bd 2d51 583d 4fef 8a3d
00000230: 70b3 d83b 2b71 bf3c 38b3 1bbd 08fb 95bd
00000240: b221 19bd 06cb 7abd 5e1f 60bd 5d25 77bd
00000250: 3bcc 353c 068b 2cbd c2bf c63d a7cd efbc
00000260: b545 9cbb 6a2f b43d 34b1 89bb 1621 62bd
00000270: 3283 ae3b 21d6 93bc 75b6 1fbb b157 e5bc
00000280: 7dd5 a43c 1124 8c3c 1f57 843d 4614 4ebd
00000290: e36e 85bd 7ac5 9e3d 0b1e 86bc dd9e 7c3c
000002a0: 4e4f 2b3d 8826 8ebd e3ab 90bd b73f 553d
000002b0: 3e93 7ebd 3db3 bd3c fa86 c8bc ae0b a23d
000002c0: cf12 7a3d a12b 86bc 5f65 3dbd 143e c7bc
000002d0: 56f4 8e3d 227b 253d faf6 0f3d 3068 a33d
000002e0: 0769 a8bd d7c9 2b3d e394 f4bc ee7f 233d
000002f0: 36d2 debb 9b4c dd3b 2c63 86bc 92c0 f7bc
00000300: b7e1 9abc 8201 803d 8fca 963d a478 26bd
00000310: f151 9d3d 3868 afbb 67dd ddbb 084e a3bd
00000320: e77b 28bc be89 5c3d eb6f 873d 7bb0 ae3b
00000330: 2f32 89bd 38d3 1abd 5c40 863c d15b f63c
00000340: 9501 263d a8fe 31bd 00b4 f6bb 5277 40bc
00000350: 180f ab3d 5eac ac3d dbd7 d03b 6c24 003c
00000360: b01b 2a3d a2b0 d83c 27f4 59bd c74a 2dbd
00000370: d423 913d 1bf3 8e3d f225 543d 6b70 a33d
00000380: d7cb 4d3d 563e d33a 6bb5 8c3c b2a7 e0bc
00000390: c013 463c 0ab0 363c dcd2 2a3d 4019 9fbb
000003a0: 0afe eebc f708 1ebc a304 bf3d 3a93 603c
000003b0: c47c a0bd a87e 973d 4b13 543c 5884 413d
000003c0: d9cc 16bc 1935 0abd a501 3f3d 9672 863d
000003d0: a6da 203d b063 9d3d f959 f3bc a2ca 1b3d
000003e0: ce68 503d 4025 0b3c 1ea6 ab3a e816 9abd
000003f0: 391d a73c 8fd8 df3c 8681 e6bc 0343 c13d
